AmbulanceProject/pth_files/first_86.pth (torch, 412231 bytes, 10 tensors)

conv1.0.weight f4 [16, 1, 3, 3]
00000000: f928 8c3e e679 36bc d81e 96be a745 983d
00000010: edce 303e 85fe fe3c 2770 43be fb79 873d
00000020: 9ab6 153e 30cb 9e3c 9cc5 c43d 6164 113e
00000030: 8fa4 123e 3b4f f0bd 6337 443e bbf4 09be
00000040: 5922 71be 6fb0 9f3e 0334 a7be 4ed9 c5bd
00000050: 9d11 d53d bcae 9f3e 756e 2bbd 425f f43c
00000060: 3c12 1d3d 6be6 8cbd d700 94bd 68b9 cd3d
00000070: 3456 983e 0e18 89be c496 c8bd 3578 563e
00000080: e1ca 963e b4c9 4dbe 725c 053e 7d50 d93d
00000090: 36db 833e 64c7 b2bd 750e abbd 755a 003e
000000a0: 518c c43d 6ee4 ae3d f742 99be 132a f1bc
000000b0: de92 8abe 2dde a0bc e66c 10be 7545 77be
000000c0: 5317 dcbd 83b4 14be fc55 acbd a90a 64be
000000d0: d2bc 41be b07d 613e 1533 c8bd fc1c 893e
000000e0: 5eb5 93be bfba a1be e48f 8d3e 8cec 9abd
000000f0: 8f9e ec3d b297 cf3d 02ec 43be eff2 96bd
00000100: 2d0a bd3d e37a a53e 24d6 793d de3a a3be
00000110: 08f7 22be a84b 6b3e fbf2 7cbe f2f7 943e
00000120: 5cd7 413e b0ff 033e 16c4 ad3e 6eac 92bd
00000130: 1251 8abe c5de dbbd 54ab 5a3e 4a08 bbb9
00000140: 56a5 07be 70af 303d 8c38 733e 8045 483e
00000150: 882a 813e 1a28 7b3e f699 293e 7f08 84be
00000160: 5367 433e b587 843d 8e53 09bd 5a0d ec3d
00000170: 960e b0be d33b 1cbd 7902 f63b 09e4 a9be
00000180: bdf8 0a3d 2334 b5bd 1ed9 fdbd e4d5 e8bd
00000190: 0a92 983e 970d 48be a841 2abe 3f0c 823e
000001a0: 7b30 04bd 68ca 673d 35ea 4b3e 9e70 d4bd
000001b0: 6e36 ee3d d8f3 acbc fdbb 213e fb7b e63d
000001c0: 414f 73be b74e 133e 5288 5dbe f2b4 813e
000001d0: e7b6 af3e 0ad8 2dbd a557 32bc 7b06 a63e
000001e0: 2a30 a13d ac6b 4e3e 42c5 a13e dc09 91bd
000001f0: 2b51 9dbd dcb7 0ebe 4335 203e f444 98be
00000200: 7b5f 853e f50c 993d fc86 63be 05c2 723e
00000210: fc33 743e 3ceb 67be 0baf a13e 2662 1ebe
00000220: 7c56 293e d175 48be c22d 093e 8636 c139
00000230: 135b ee3c 3c85 b6bd a039 ab3e 176b 4ebe
0.2737501 -0.011137461 -0.29320407 0.0743516 0.17266436 0.031127224 -0.19085751 0.06615063
0.14620438 0.019383997 0.096080035 0.14198448 0.14320587 -0.11733862 0.19161753 -0.13472264
-0.23548259 0.31189296 -0.3265687 -0.09660588 0.1040375 0.31188 -0.041853387 0.029830579
0.038347468 -0.06879886 -0.07226723 0.10045129 0.29753268 -0.26776165 -0.09794381 0.20944293
0.2945166 -0.20096475 0.13023546 0.10611055 0.25753182 -0.08729437 -0.08352367 0.12534507
0.09597076 0.08539663 -0.29933903 -0.029439008 -0.27065176 -0.019637192 -0.14104041 -0.2414759
-0.10746636 -0.14521985 -0.08414838 -0.22269692 -0.18919685 0.22020602 -0.09775368 0.26779926
-0.2884931 -0.31587788 0.27648842 -0.07564649 0.1155368 0.101363555 -0.19132999 -0.07370555
0.092304565 0.32320318 0.060995236 -0.3188085 -0.15914547 0.2297808 -0.24702065 0.29095417
0.1892981 0.12890506 0.33938664 -0.071617946 -0.27014977 -0.10735849 0.21354419 -0.00035673595
-0.13246664 0.04313606 0.2375204 0.19557762 0.2522776 0.24527016 0.16562638 -0.25787732
0.19082384 0.064711966 -0.03352695 0.11525984 -0.34386128 -0.03814299 0.007507619 -0.3318179
0.03392862 -0.08847835 -0.123949274 -0.113689214 0.2979892 -0.19536434 -0.16626608 0.25399968
-0.032272797 0.056589514 0.19913562 -0.103730425 0.116314754 -0.021112368 0.15794368 0.11254116
-0.23760702 0.14385496 -0.21634033 0.25333363 0.3431923 -0.04244236 -0.010885154 0.3242682
0.07870515 0.20158261 0.31595808 -0.07081959 -0.07681497 -0.13937324 0.15645318 -0.29740107
0.26049408 0.074731745 -0.22219461 0.23706825 0.23847955 -0.22648329 0.3157886 -0.15467128
0.16536897 -0.19576193 0.13396361 0.00036852452 0.029096162 -0.08912131 0.33442402 -0.20158039

conv1.0.bias f4 [16]
00000000: 83da 65be 3fd6 6ebe ba03 4d3e c36c 2e3e
00000010: 6bd8 58bd be3d 54be 13e0 1fbe 1eb1 0c3c
00000020: 80ba 58be 9d35 28be 0eba 483e 5189 8abe
00000030: 22dd d63d 87e7 8cbe cdac b1bd 61d8 023d
-0.22446637 -0.23323916 0.20020953 0.17033677 -0.052940767 -0.20726678 -0.15612821 0.00858715
-0.21164894 -0.16426702 0.19602224 -0.2705789 0.104913965 -0.2752039 -0.08675537 0.031944636

conv2.0.weight f4 [32, 16, 3, 3]
00000000: 358a 43bd 7f96 ad3d 3ceb 843d 2e3f 93bd
00000010: 7699 47bd 52d0 233c 3501 943b b5a2 60bc
00000020: 7fcc 1cbc edf6 f53c 2e2a 2d3d 1cf9 09bd
00000030: a393 a13d 662e 6f3d e26a 123d 7e0e 18bd
00000040: 77f0 e1b9 450d 5c3d 1599 3cbd 2fa7 063d
00000050: 0133 38bd f05c 41bd 7a1f 653d 05db 553d
00000060: 298b 78bd e0d2 303d 8059 7abd 2219 6c3d
00000070: 7174 92bc 00a6 68bd 7c0d ad3c 9d9d 903c
00000080: 261d eebb 713c a9bc 557a b23d 2f4e f5bc
00000090: ba3e 74bb 4b7f b03d aadd 76bd eaf2 0f3d
000000a0: 8295 15bd 4544 99bd 2577 373d 4e50 8bbc
000000b0: 0e6b 80bd 8bed a93d 304f 13bc 5993 1c3d
000000c0: fecc 2a3c b0a9 cc3c 7c74 863d 6ed7 84bc
000000d0: 8b1d 61bd 9f1b d9bb 1730 a53d f244 8e3d
000000e0: 0335 62bc fcf7 4ebd 99d3 693d ab34 1ebc
000000f0: 4b6a 96bc 5435 4fbd ad52 83ba 5c7e cb3b
00000100: 27b7 413d c52c 5fbd 0857 ca3d 88b5 2f3d
00000110: af6f 3e3d 7309 92bc a338 0b3d 8ec7 6ebd
00000120: f0f4 a83d 469d 123d 2131 ba3b e9c0 473d
00000130: dab5 683d f011 2bbd 5fcf 8abc 9088 70bd
00000140: 1fd8 e03c 1157 7c3b 7182 043d 03b7 983d
00000150: 6b6a 6dbd a7b2 ad3d f38f b63c c447 033d
00000160: 0923 85bd 4f9d 9bbd 659e ab3d 4f8f 40bd
00000170: 8cd4 9abc 30b2 97bb 09af 323d 0f6e fe3c
00000180: c8d0 243c 4c5e 613d b39d b33d d3f1 ac3d
00000190: 8681 d73d 6e97 24bc 7c7f 6d3d 4057 df3c
000001a0: 969b 1f3d caad 8d3d 6f9d e33b 4298 663d
000001b0: f7f8 7c3d fc93 9f3d fa01 39bd 7f82 5d3d
000001c0: 9902 84bd c36f 163d 742d a6bc a740 e33b
000001d0: 3da0 83bc b74f b7bc 5cff 433d b241 e9ba
000001e0: 7c81 e53c 818b 99bd c94d 283d f620 68bd
000001f0: 5f81 47bd 0f38 0cbd 6632 a33c 4c38 b93d
00000200: cf35 863d 637d 47bd 1a19 503d 9a13 d8bb
00000210: 315b 5d3c 29f2 34bd 94c5 6ebd fa35 9b38
00000220: 340f 863b dd07 833d 7bdf 9c3d 8a4c a63c
00000230: 8a7a fa3b 884b 70bd a83e 23bb a8c3 50bd
00000240: a597 ba3c 4575 39bd 05d0 ba3d 0684 663d
00000250: fd46 e33c aa2b 113d ba7f 68bd 2615 853d
00000260: 0596 5c3d 8209 e73d e64a 71bd 4ece 983d
00000270: 6b7d 62bd b3fa 653d 294e aab9 bbdb 8dbd
00000280: 7479 a6bd 1e8b 60bd 57c6 b53c b9c2 e33d
00000290: 2078 713d 4069 0dbc 971f 31bd d429 0cbd
000002a0: 5f0e 45bd b742 9d3d 386d 933d 85a8 ad3d
000002b0: c9af 18bd 84a2 253d 2e10 c03c 157a 993c
000002c0: 85e1 87bb ddec 743d 3499 adbd a476 33bd
000002d0: 47a9 26bd 0f77 a73d 1c00 1e3d 9dd5 953d
000002e0: e783 40bd 62e3 263d d9b0 6b3d e0d8 abbd
000002f0: 091e 253d 3c54 8b3d f1d5 4bbd b125 3d3a
00000300: cca3 41bd 488b 973d a9f8 823d a934 8bbc
00000310: af47 ab3b f4c0 373d 8b7e 14bd f062 f53c
00000320: 350c a03d 7dfb abba 68d7 14bd ac7c a83d
00000330: 2ff0 8f3d a985 3b3d 8eed 5cbd d73f 74bd
00000340: 1e8a 9a3d 9318 713d 1c4f 87bd f591 4fbd
00000350: f641 bb3d 4583 25bd 28e7 f13c 4270 2c3c
00000360: f70b ac3d 05da 2b3d 54e5 21bd 7add 9a3d
00000370: 24e8 89bb 4e19 c9bc 93fd 11bd eeb3 6fbd
00000380: 7b53 8fbd 57db ca3d 78a5 6c3c 7282 c23d
00000390: 81a4 87bd ea55 90bc ad5b d73c 92b8 2a3b
000003a0: 9b0b 233d 80fb b4bd 96ee 9bbd 1f45 873d
000003b0: 81fc 0b3c 5aa5 333c d608 613c 827c 82bc
000003c0: 8562 ba3b 9448 24bc 9bcd 9f3d e7f4 37bc
000003d0: 4b83 c13d 45b2 11bd fc95 463d 6128 f33b
000003e0: 79b8 513d 05f1 1abd aa72 633d 15ce 703d
000003f0: 31ce 6c3d d95a 9d3d f215 3c3c 3f18 033d
-0.047739226 0.084759705 0.0649018 -0.07189785 -0.048730336 0.009998398 0.0045167455 -0.013710667
-0.00957024 0.03002497 0.042276554 -0.033684835 0.078894876 0.05839386 0.035746463 -0.037123196
-0.00043094505 0.053723592 -0.046044428 0.032874282 -0.044970516 -0.047207773 0.05593822 0.052210826
-0.06067959 0.043169856 -0.06112051 0.057641156 -0.01787779 -0.056798935 0.021124594 0.01765328
-0.0072666584 -0.020658704 0.08714739 -0.029944507 -0.0037268833 0.08618029 -0.06026999 0.03514377
-0.036519535 -0.074837245 0.04479136 -0.017006066 -0.06270419 0.08297261 -0.008991048 0.03822646
0.0104248505 0.024983257 0.065651864 -0.016216006 -0.054959815 -0.006625607 0.08065813 0.06946744
-0.013806584 -0.050529465 0.05708656 -0.009656112 -0.018361231 -0.050587967 -0.0010019146 0.0062101316
0.04729381 -0.054486055 0.09879881 0.04289773 0.04649323 -0.017826771 0.03398956 -0.05829578
0.08249843 0.03579452 0.005682126 0.048767958 0.056814052 -0.041765153 -0.016944585 -0.058723986
0.027446805 0.0038504044 0.03235096 0.07456782 -0.057962816 0.08481341 0.022285437 0.032050863
-0.06500823 -0.075983636 0.08379821 -0.04701167 -0.018900178 -0.004629396 0.043623958 0.03105834
0.010059543 0.05502157 0.08770313 0.08444562 0.105227515 -0.010045869 0.057982907 0.027263284
0.038966738 0.06917913 0.006946258 0.056297548 0.06176087 0.07791898 -0.0451679 0.05407953
-0.06445808 0.036727678 -0.020285346 0.0069351974 -0.016067619 -0.022376878 0.04785095 -0.0017796068
0.028015845 -0.074973114 0.041089807 -0.05667206 -0.048707362 -0.03423315 0.019921493 0.09043941
0.06553232 -0.048703562 0.05080519 -0.0065941336 0.013510511 -0.044176254 -0.058293894 7.40103e-05
0.004091168 0.06397984 0.07659813 0.020300169 0.0076440023 -0.058665782 -0.0024909172 -0.050967842
0.022777388 -0.045277853 0.09121708 0.05627825 0.02774381 0.035442032 -0.056762435 0.06498174
0.053854007 0.1128111 -0.05890932 0.074612245 -0.05529539 0.05614729 -0.0003248316 -0.06926676
-0.08128634 -0.054820172 0.022189302 0.11121125 0.05895245 -0.008631051 -0.043243017 -0.034219578
-0.04810941 0.076787405 0.07198566 0.08479408 -0.037277017 0.04043819 0.023445215 0.018734971
-0.004146757 0.059796203 -0.08476487 -0.043814316 -0.04068878 0.081770055 0.038574323 0.07316134
-0.047000792 0.040744193 0.057541702 -0.08390975 0.040311847 0.06803176 -0.049764577 0.0007215394
-0.04727535 0.07399613 0.063950844 -0.016992884 0.005227051 0.04486175 -0.036253493 0.029954404
0.07814828 -0.0013121214 -0.03633824 0.08226904 0.07028233 0.045781765 -0.053937487 -0.059631195
0.07545875 0.058861326 -0.06606886 -0.050676305 0.091434404 -0.04040839 0.02952917 0.010524811
0.084007196 0.041955967 -0.039525345 0.075617746 -0.0042085815 -0.024548199 -0.035642218 -0.058521204
-0.069983445 0.09905117 0.014443748 0.09497537 -0.066231735 -0.017619092 0.026288832 0.0026049954
0.03980599 -0.08837032 -0.07613866 0.06604981 0.008544088 0.010964716 0.013735017 -0.01592851
0.005688014 -0.01002707 0.07802888 -0.011227823 0.0944887 -0.0355704 0.04848288 0.007420585
0.051201317 -0.03782751 0.055529274 0.058790285 0.057813827 0.076833434 0.011479842 0.032005545

conv2.0.bias f4 [32]
00000000: de18 0ebd aba8 debc 72d7 15bd 8f81 9abc
00000010: 7528 883c a4d1 8bbb a4b3 e33c 9489 863c
00000020: f84c 823d cb27 9cbc 720e dc3c 2dae a03d
00000030: f12b 9e3d 7e57 f23c 12dc 7fbc 978d 88bd
00000040: 5f80 b73d 8c13 06bc a8f4 65bd 0212 89bc
00000050: 0e50 fd3c e59a e7bc 28da 6fbd fec5 8f3c
00000060: 04a4 77bc c5cf 51bd 3c60 9c3d b21a 2a3d
00000070: 6b90 483d 3426 083c 3e73 9c3d e6a8 04bd
-0.034691684 -0.027180037 -0.036582418 -0.018860606 0.016620854 -0.0042669345 0.02779562 0.016423024
0.06362337 -0.019061944 0.026862357 0.078457214 0.07723225 0.029582735 -0.015616434 -0.06667631
0.08960032 -0.008183371 -0.056141526 -0.01673222 0.030921962 -0.028272102 -0.05855766 0.017550465
-0.015114788 -0.051223535 0.07635543 0.041529365 0.048965853 0.00830989 0.07639168 -0.032387637

conv3.0.weight f4 [64, 32, 3, 3]
00000000: faf5 923c 046c 3cbd dd75 3b3d 2037 1abd
00000010: f944 5b3c d70a fa3c 4f31 f2bc 69a1 153d
00000020: a735 393d 90ba 293b ac37 733d ba50 5b3d
00000030: 95e5 72bc 4dcd 9abc 2033 be3c d86c b1bc
00000040: 5b0a 3d3a b626 ebbc 881d aabc 4a06 6d3d
00000050: 38b7 453d 29ff 263d 2169 833d 08a3 093c
00000060: 9440 0f3d b048 8b3a e313 493c 6f65 70bc
00000070: 9d40 80bc 3113 de3c 2750 bcbb 19b6 1ebd
00000080: c490 6d3a 54b9 bf3c b45a 42bb 9c71 a83c
00000090: 65c9 4b3d bb56 8a3d f83d 853d 1a77 a93c
000000a0: 7b59 203c 3426 713d 7f7d d6ba b41e 0dbc
000000b0: 155e 893c 7b97 05bd e4f9 d93c b2d9 85bc
000000c0: 0459 4d3d e4c0 923c a85d e33a 47dd 693d
000000d0: 89e7 0dbc c14d 763d 493a 28bc 4b06 82bc
000000e0: 44d4 3bbd 0817 973c c1ef 1ebd 41a4 033c
000000f0: dd3e b03b 2056 0fbd 84cf 1e3d 6ce5 0cb8
00000100: b8ed 873d 6a9c f33c f9c7 023d 79ce b53c
00000110: ee15 92bc b88d 943c a984 a1bc 8fe0 01bd
00000120: b3f0 85bc fac5 3dbc 92b0 153d 7940 243d
00000130: e76e 00bb 881c 0ebd 11d4 3abd f32a ac3c
00000140: 9803 953c 867d 6a3d dacb 633c cb6b dfbc
00000150: e1fa 483d 08e6 82bc 4275 8f3d 8ef1 1ebd
00000160: cb8f 9fbc 04b8 303d 0217 1ebc 7677 c63b
00000170: 8a6a d83b 9c43 873d d416 0c3d 03f3 823d
00000180: 04b6 573d 1dca ed3c 940e 0d3d 8a67 1dbd
00000190: 4a7a 8139 d10d 3f3d 5826 223d db7c 353d
000001a0: 495f 8e3d bcdc e539 d43b d2bb 9cc8 1dbc
000001b0: 8b4e 1a3d 405d b9bc 2d8f a0bb dcb9 5d3d
000001c0: b9c9 053d 890d 453d 4281 0c3c c718 983d
000001d0: 06dc 04bd 2e96 583d 8221 c03c ac16 8c3d
000001e0: ca84 c8bc 9226 8d3d 7026 423d 4d97 dfbc
000001f0: 6d9b ddbc 5e8f 50bb e68c bbbc b3af 20bd
00000200: a465 debc d4b7 17bc 1ed4 193c de23 e1ba
00000210: 5801 7f3d 0493 653d 9a53 493c cb77 43ba
00000220: cbcd babb 2945 b2bc 4796 2a3d cfb9 4e3d
00000230: 2b56 58bd 1cea 7c3d fdfd e4bc 3cea 04bd
00000240: ceeb 47bc 53c7 fc3c 04a8 d5bb 66ac 80bb
00000250: 7c8d e13b 69cf 8a3d 7886 cebc 2cad 27bd
00000260: 2105 483d c537 1cbd 0d30 063d 5d4e 8f3c
00000270: 9f72 563a ac78 3a3d 5076 4f3d 9fc0 fabc
00000280: 97eb 91bd e20e 38bc 0efb 12bd 094d 5fbd
00000290: 2115 4a3d 79e8 61bc 59c3 1b3c dd8c 39bc
000002a0: cdef 1a3d 3485 2bbc 1906 863b 355e 873b
000002b0: ef54 1dbc fc99 91ba bc07 223d f16d f33c
000002c0: 6b99 073d 1e1a 1e3c 6dc5 863d 1f8a bcbb
000002d0: d368 803d 6558 503d 833b 2c3d 45ab 6c3d
000002e0: ea7a 32bd 017b 633d d26f 9a3c 76af 883d
000002f0: 41b3 4e3d 3ebe 523d daaf 3f3d 83d6 a8ba
00000300: be5c 92bb 27d9 6ebb aff0 023d f2d4 773c
00000310: d508 093d a0d8 1a3d c545 123d 578f 44bd
00000320: 8d5b c33c a565 97bc 29bd e63c 918e 1e3c
00000330: 6346 0bbd 710c cc3b 08c5 93bc 514e 823d
00000340: 7acc 5ebc 2902 6c3d fbd6 18bc 7c4d b83c
00000350: 72df a8bc 9272 dc3c 3fee e839 f49e 8e3d
00000360: 8145 bc3c 93de 063c b1da 633d 052f fabb
00000370: fa74 c3bc 7051 4b3c c6af 11bc 540c 28bd
00000380: 4249 503d f3b2 f2bc 747b 303c 6b4a 533d
00000390: 59b1 dabc bbe4 093c 17a1 5c3d 5967 393d
000003a0: 3a5d 2b3c 241e 2fbd 9b85 a73c 231c 073d
000003b0: f10d 3ebd 94c1 1a3d 8eae 2f3d e60c d93b
000003c0: dfd9 4dbc 2f85 bd3c d4af 2fbc b3a0 613d
000003d0: 07b8 8e3c 04ef 35bd 7d5a bbbc ac76 373d
000003e0: 0d90 323d e6cd 1ebd 7ab2 9d3c 49e8 d6bb
000003f0: 22a4 373d 5367 29bd 6cf7 b2bc 9a1c 543c
0.017939556 -0.04600145 0.0457667 -0.037650228 0.013383144 0.030522747 -0.029564528 0.036530886
0.045217182 0.0025898553 0.059379265 0.053543784 -0.014825244 -0.018896723 0.023217738 -0.021658346
0.0007211321 -0.028704982 -0.020766035 0.057867326 0.048270434 0.040770683 0.06416536 0.008400686
0.034973696 0.0010626521 0.012272808 -0.014672621 -0.01565581 0.02710876 -0.0057468596 -0.03874788
0.0009062404 0.023403801 -0.0029656114 0.020561986 0.04975261 0.06754824 0.0650596 0.020686675
0.009786959 0.058874324 -0.0016364305 -0.008613277 0.016768495 -0.032615166 0.026608415 -0.016339157
0.05013372 0.017914243 0.0017346637 0.057095792 -0.008661159 0.060132746 -0.0102678025 -0.015872141
-0.04585673 0.0184436 -0.038802866 0.008034767 0.0053785876 -0.034994245 0.03877212 -3.3592267e-05
0.06637138 0.02973767 0.03192899 0.02219318 -0.017832723 0.018133983 -0.019716578 -0.031708296
-0.016350126 -0.011582846 0.036545344 0.04010055 -0.0019597353 -0.03469518 -0.0456124 0.021016574
0.01819019 0.057248615 0.0139035825 -0.02727308 0.04906738 -0.015978828 0.07004787 -0.038804583
-0.019477746 0.04314424 -0.00964904 0.0060567213 0.0066044973 0.06604692 0.034201458 0.06394007
0.052663818 0.02902704 0.03443773 -0.03842882 0.0002469591 0.046644036 0.03958735 0.044308525
0.06951768 0.00043842744 -0.0064158235 -0.0096303485 0.03767256 -0.022627473 -0.0048998804 0.054132327
0.03266308 0.04810861 0.008575739 0.07426601 -0.032436393 0.052877598 0.023453478 0.06840262
-0.024477381 0.06892122 0.047399938 -0.027293826 -0.027051652 -0.0031823735 -0.022894334 -0.03923006
-0.027148075 -0.009260137 0.009388952 -0.0017176827 0.06225714 0.05604841 0.012287999 -0.000745651
-0.005700802 -0.021761494 0.041647222 0.05047017 -0.05281655 0.0617467 -0.027953142 -0.032449946
-0.012202216 0.030856764 -0.006520273 -0.0039268015 0.0068833213 0.067778416 -0.025210604 -0.040936634
0.048833016 -0.038139123 0.03276067 0.017493421 0.0008180532 0.045525238 0.05064994 -0.030609427
-0.07125013 -0.011234017 -0.035883956 -0.054516826 0.049336556 -0.013788336 0.009507024 -0.011325088
0.037826348 -0.01046877 0.0040900824 0.0041311034 -0.009602769 -0.0011108513 0.039558157 0.02971551
0.033105295 0.0096497815 0.06580625 -0.00575377 0.06269994 0.05086555 0.042048942 0.057780523
-0.04357425 0.055537228 0.018852148 0.066740915 0.05046392 0.05145096 0.046798564 -0.0012881312
-0.004466622 -0.003644535 0.031967815 0.015126454 0.03345569 0.037804246 0.03571107 -0.047988262
0.023847366 -0.018481085 0.02816637 0.009677545 -0.034002673 0.006227069 -0.018038288 0.06362594
-0.013598556 0.057619248 -0.009328599 0.022497885 -0.02061436 0.0269101 0.00044427995 0.06963912
0.02298236 0.008231777 0.055628482 -0.0076349997 -0.02385949 0.012409553 -0.008892005 -0.041027382
0.050851114 -0.029626345 0.010771621 0.051584642 -0.026695894 0.00841635 0.053864565 0.045264576
0.010459239 -0.042753354 0.02044945 0.032985818 -0.046400014 0.037782267 0.042891078 0.006623852
-0.012564152 0.023134796 -0.010723073 0.055084895 0.017421735 -0.044417396 -0.022870297 0.04479091
0.04359441 -0.03877058 0.019250143 -0.0065584523 0.044834264 -0.041358303 -0.021846496 0.012946272

conv3.0.bias f4 [64]
00000000: ac6c 41bd 822a 2b3d b610 403d 7b35 27ba
00000010: 3b1f f7bc b79c fb3c f1b3 e4bc 7331 143d
00000020: 378d 2f3d e32a 1dbd f760 13bd 536f cabc
00000030: f8fa 643c 96d2 463d c29c 38bc b85a 82bd
00000040: 133e dabc 17da 92bc b85d 7d3c ff08 e7bc
00000050: 2b98 5ebc 5546 5bbd eb44 e43c 6a03 7dbd
00000060: eb13 a13c d1ca b5bc c2d4 813c b9eb 83bc
00000070: cfa7 7c3c 9c1d 513d e7c7 493c 41da d9bc
00000080: 9b4f 88bc 3ced a83a 246b 923b c9f9 443d
00000090: f51a 8cbc 81bd 04bc 47e7 26bd f9af 13bd
000000a0: dff8 f93c 7b34 b7bc 7416 84bc 8a7f 1a3c
000000b0: 0e7f b5b9 120b ca3c 3170 a5bb d85e 12bd
000000c0: 8857 053d 62ad 72bd 65c4 7ebc 9861 b63c
000000d0: 8317 54bb 30f9 47bb 56ce b0bc dbd8 19bc
000000e0: 5879 38bd 19ad ce3b ed11 9a3c c8fd 143d
000000f0: cb90 d63c 8378 3fbd f3c6 453d 0bea 37bd
-0.04722278 0.041788585 0.046890937 -0.00063785136 -0.030166259 0.030714376 -0.027917834 0.03617997
0.042859282 -0.038370978 -0.035981145 -0.024711287 0.013975851 0.048540674 -0.011267843 -0.063649595
-0.026640927 -0.017926259 0.015464239 -0.028202532 -0.013586084 -0.05353387 0.027864894 -0.061770834
0.019662818 -0.022191437 0.015848521 -0.016103612 0.015420868 0.05105363 0.012315727 -0.02659333
-0.016639521 0.0012888084 0.0044683386 0.048089776 -0.017102698 -0.008101822 -0.040747907 -0.036056492
0.030514179 -0.022363892 -0.016123988 0.009429822 -0.00034617673 0.024663482 -0.0050487746 -0.03573498
0.03255418 -0.059247382 -0.015549754 0.022263333 -0.0032362647 -0.0030513518 -0.021582764 -0.009390081
-0.045037597 0.006307256 0.018807376 0.036374837 0.02619209 -0.04674579 0.048285436 -0.044900935

conv4.0.weight f4 [128, 64, 3, 3]
00000000: 4c15 943c 684e 1dbc 0b43 b73c 40af eabb
00000010: c135 1f3d b959 9c3c e92b dd3c cd90 b5ba
00000020: 9352 363d 7b5c 96ba 073e b23c 6d14 f93c
00000030: 001c e83c 1d8c 363d 8206 f1bc dabd 3fbc
00000040: 1153 c8bc 84f0 0f3d ab79 f13c 3c7b 0c3c
00000050: 56e0 9e3c f681 183d 5e73 1a3d de63 db3c
00000060: 8ca8 173d 3038 d63c cdb0 3a3c 3655 1fbd
00000070: 9585 b9ba c766 8cbc a2eb e9bc ad6d 32bb
00000080: da88 64bc 7a3d 01bc 415e 32bd 2429 ee3b
00000090: 8bed d3bc 272f e5bc 4836 18bc 9490 1f3d
000000a0: 929e 17bd 1425 193d 854b a93a 0527 ec3c
000000b0: 7cb8 4e3c 8a52 b6bc 8cb3 423c 8cec c33c
000000c0: b0b7 1a3a 065e 0ebd dd74 3c3d aa34 833c
000000d0: 3cbf 213d 1886 183d 36ff bbbc 6d2a 733c
000000e0: 1664 273d a915 10bd a9fc 853c be26 673c
000000f0: 55ae 013c 8c53 363d b72a 9ebb 4de1 403c
00000100: e772 3e3a 0f7c ae3c 637a d2bc c981 ae3b
00000110: bf05 6fbc 7143 7ebc d650 4c3c 10a5 fe3c
00000120: 8d9f f93c 9025 b93a 008c 0cbb 402d 4a3c
00000130: 6a07 ecbc 1560 ae3c 4f28 103c 18bf 03bd
00000140: 5ed5 c2bc b09d f93c 36bd 52bc 7602 253d
00000150: 8b80 893c f598 3f3c 26d9 04bd 0a3d 933c
00000160: 6e1b 41bc 9957 4e3a 6fec cdbc 9bea 013d
00000170: 07e9 bd3b 9da2 953c 5129 c2bc 1eac 8d3c
00000180: d95e a8bc 965d df3a 2462 c7bc cd93 e73c
00000190: 0111 b7bc c1b3 89bc 260a 14bd e4a8 a83c
000001a0: c436 00bd ddbd 323d a92e 9d3c 68c2 c93c
000001b0: fee1 edbc 5826 16bd 3243 063d 4c88 91bc
000001c0: acdd 88bc 6774 ce3c 5ce2 113d d8a9 573b
000001d0: c2a7 b9bc 2c2a c63c 83ca 44bc abdb 653c
000001e0: dc28 c1bc dd71 bebc d4c8 6ebc 50f5 16bd
000001f0: 76d1 f7bc ff06 9c3c 9509 01bd a1c7 cebc
00000200: 070f aebc 05d0 15bc 672e ccbc 0525 ecbc
00000210: 2dd7 1bbc 6047 b63b 18be f0bc 3c61 003d
00000220: 2fda 62bc 1a51 9cbc dfc6 f8bc 2efc 413d
00000230: d21b e1bc f5c6 35bc 6783 53bb 2e5f 103d
00000240: 020b d2bc 4597 0e3d 7f34 1e3d 1655 08bd
00000250: 2343 0fbd 0eb2 c5bc 627c 80bc 97b5 eb3c
00000260: 0355 b238 98ed f43b efa6 063d dbf1 cfba
00000270: b08f 843b f6b2 323c 7a46 813c a5fe b63c
00000280: 2002 2c3d 566d b53c 0b1c 29bc 4fc4 75bc
00000290: e9bd 0b3d 1c9d 5e3c 8116 8a3b 3e43 9cbc
000002a0: 1454 1b3c 99d2 083c 02b6 f6bc b210 343c
000002b0: d5a1 d63c eee6 1bbd 9a8f 203a 9213 973a
000002c0: 1776 a4bb ebce 023d a571 173c 112a 5d3c
000002d0: 7dee 9fbb 8645 58bc 1b30 f93c a4ac b33b
000002e0: 16a5 023d bc29 26bc cbd9 8fbb d676 c83b
000002f0: 560b d7bb fe13 a2bc 522b 09bd a4a9 903a
00000300: f2a2 d1bc 9227 e43c 99ac 003b c131 2e3c
00000310: 0205 0c3d 2819 01bd 2ae9 f1bc e015 1f3d
00000320: f579 df3c 4de7 12bd dcf1 1bbd 6f45 793c
00000330: a620 303c 201f 0cbd 8400 b3bc 1be3 8c3c
00000340: bead 10bd c3fe 793c 46d2 0e3c 39ac e2bc
00000350: e432 8abc 5627 0f3c b36a 0ebc fe75 01bd
00000360: e8f6 7eba 54f3 313c e680 ae3c 0606 cbbc
00000370: b986 933c ef3a 963c 36d1 223d c614 333d
00000380: 5ee8 7ebc 212d 85bc 8900 b0bc f815 d63c
00000390: 4cd9 82bc 3bf3 f0bc cad2 85bc 950f 03bd
000003a0: cb44 f63b 54c7 17bc 4887 a53c 28d3 36bc
000003b0: 6224 14bd b1a7 40bc ea49 aebc 9746 abbb
000003c0: e195 4a3c 72cf ac3b 947d d83c 2d79 f3ba
000003d0: 65a8 fa3c 0261 163d e790 dd3c 5206 11bb
000003e0: a3d4 1c3d 5f6a 65bc f0e6 763c 32e6 9fbc
000003f0: 3779 d73b 203c 273d 1eab c13c cde3 373b
0.018076561 -0.009601213 0.022370836 -0.0071620047 0.038869623 0.019085752 0.026998477 -0.0013852358
0.044512343 -0.0011471653 0.021758093 0.030405248 0.028333664 0.044567216 -0.029422048 -0.011702979
-0.024453672 0.035141483 0.029476961 0.008574303 0.019394081 0.037233315 0.03770768 0.026781019
0.037025973 0.02614984 0.011394692 -0.038899623 -0.001415419 -0.017138852 -0.028554741 -0.0027226016
-0.013948644 -0.007888192 -0.04354692 0.007268088 -0.025870105 -0.027976586 -0.009290285 0.03895624
-0.03701646 0.037388876 0.0012916183 0.0288272 0.012617227 -0.022256155 0.011883628 0.023916505
0.00059020054 -0.034757636 0.046009887 0.016016323 0.039489016 0.037237257 -0.022948842 0.014841658
0.040866934 -0.035176907 0.01635583 0.014108358 0.007915099 0.04451327 -0.0048268693 0.011772466
0.00072650466 0.02129939 -0.025693124 0.00532553 -0.014588772 -0.015519009 0.012470445 0.031084567
0.030471588 0.0014125574 -0.0021445751 0.01233989 -0.028812129 0.02128605 0.008798673 -0.032164663
-0.023783382 0.0304707 -0.012862494 0.04028555 0.016784927 0.011694183 -0.03243365 0.017973442
-0.011786325 0.00078713294 -0.025137154 0.031717878 0.0057956013 0.018266017 -0.023701342 0.017293986
-0.02055304 0.0017041441 -0.02433879 0.02826872 -0.022346975 -0.016809346 -0.03614249 0.020588346
-0.03130223 0.0436381 0.019187288 0.024628833 -0.029038426 -0.03665766 0.032778926 -0.017765187
-0.016707264 0.02520199 0.035616264 0.0032907631 -0.022663001 0.024190031 -0.012011173 0.014029424
-0.023579054 -0.023247654 -0.014574248 -0.036855042 -0.030251246 0.019046305 -0.03150328 -0.025241675
-0.0212474 -0.009143834 -0.02492447 -0.028826246 -0.009511751 0.005562708 -0.029387519 0.03134273
-0.013845964 -0.019081641 -0.030368267 0.047359638 -0.027479086 -0.011094798 -0.0032274367 0.03524702
-0.025640015 0.03481223 0.038624283 -0.03328427 -0.034976136 -0.024132755 -0.01568431 0.028773112
8.503536e-05 0.0074746124 0.032874044 -0.0015864925 0.004045449 0.010906925 0.015780676 0.02233822
0.041994214 0.022146862 -0.010321627 -0.015000417 0.03411666 0.0135872625 0.0042141085 -0.019075032
0.009480495 0.008350992 -0.030116085 0.010990309 0.026200214 -0.03806203 0.0006124914 0.0011526218
-0.00501896 0.031935614 0.009243404 0.013498799 -0.004880725 -0.013200169 0.030418446 0.005483227
0.03189572 -0.010141786 -0.0043899766 0.006117682 -0.0065626306 -0.019784924 -0.03348858 0.0011036885
-0.025590394 0.0278509 0.0019634126 0.010631979 0.034184463 -0.03151813 -0.029530127 0.03883922
0.027279833 -0.035865117 -0.038072452 0.015214308 0.0107499715 -0.03420937 -0.021850832 0.017198136
-0.035321943 0.015258494 0.008717125 -0.027670013 -0.01686997 0.008737406 -0.008692431 -0.031606667
-0.0009726123 0.010861237 0.021301698 -0.024783146 0.018008577 0.018338649 0.0397503 0.043720983
-0.01555833 -0.01625687 -0.02148463 0.026133522 -0.015972756 -0.029412856 -0.016335864 -0.031997282
0.007515525 -0.009263832 0.020206109 -0.011158742 -0.03616751 -0.011758731 -0.02127548 -0.005226921
0.0123648355 0.005273753 0.026427068 -0.0018575542 0.030597875 0.036713608 0.027046634 -0.0022129011
0.038288724 -0.014002412 0.015069708 -0.019518945 0.006575729 0.040828824 0.023641165 0.0028059364

conv4.0.bias f4 [128]
00000000: 7168 b1bc d435 2fbc 436c 1b3d e48b ea3c
00000010: bad4 1bbd 0e6b 1c3c 3e0b 1ebc 6f5d 8eba
00000020: ec6b 823c 6d74 893c 08ec 01bc ba97 03bd
00000030: b93b e6ba 55bf 6cbc 3b89 c93c 79b6 433c
00000040: 2937 5ebc 14d0 19bc 39da 15bc 8f76 8ebc
00000050: 6848 0bbb cb33 29bc e36e 02bd bc2d ad3a
00000060: b533 85bc fc3f fabc 5cc3 06bd 4dff 53bc
00000070: f44b 97bc 7271 04bd 74af 123d 48db 953c
00000080: 5dc7 1a3d 0a59 f3bc 9aae e8bb a6ac c7bc
00000090: 0085 d3bc e973 d8bc a761 d43b 7afd 34bc
000000a0: d3a6 10bb 9b5f e93b b1e7 893c 2d51 9c3c
000000b0: a5e6 073d 0c21 a13c 6d93 14bd 5cbf 9a3b
000000c0: 3c61 0c3d d0cc 40bd 66c5 67bc a80f 293c
000000d0: 7382 c43c bd2d e73c b36b 69bc ebbc 97bc
000000e0: 1b79 93bc e50f 3c3b bc31 4b3c 8c2a b63c
000000f0: 7a9a 80bc 511b 9fbc 7c35 a33c 0830 b7bc
00000100: 2cbe 11bd c55f 1ebb 3e04 4abc ef35 403a
00000110: 8479 01bd b570 bebc aec3 d23c e656 9abc
00000120: 612d 8fb9 9410 f73c 2b6c 4dbc bc28 2a3b
00000130: a17a 1d3d 3a49 1cbd bff7 233d 6e10 acbc
00000140: 137a 5c3a ce62 fb3c 5c72 f5bc 4fd1 c33b
00000150: 7c29 15bd be53 52bc bc73 ce3c d9de 7fbc
00000160: 441f b73c 5d26 cc3c 97ce 653c 151b bd3b
00000170: 48a2 e23c e7ba e3ba 30c3 a93b 6850 8ebc
00000180: a133 243c 4917 9bbc 2cec 1a3d 72ac 9ebc
00000190: a7d2 86bc e50f 05bd df9c ef39 8e01 9a3c
000001a0: 10fc 4dbc bbf4 833c a603 003d e581 463c
000001b0: 64b0 aa3c aa63 1fbc f4c7 0f3c 381b d13b
000001c0: 8047 40bc 4c9c 70bc f2d6 b33c c007 3dbc
000001d0: 38d0 94bc add2 24bd 71cc b93b 73bb 5bbc
000001e0: 9dfb eebc cbf1 123d d5b8 2bbc 2cca 413c
000001f0: f4ca 31bd 2e51 c8bc 9508 7bbc 09c3 c9bc
-0.021656247 -0.010693986 0.037945043 0.028631158 -0.03804467 0.009547008 -0.009646235 -0.0010861586
0.015920602 0.016779149 -0.007929809 -0.03212712 -0.0017565406 -0.014449914 0.02460157 0.01194536
-0.013562956 -0.009387989 -0.009146267 -0.017390518 -0.0021252874 -0.01032729 -0.03184403 0.0013212482
-0.016260007 -0.030548088 -0.032901153 -0.012939286 -0.018468834 -0.032334752 0.035811856 0.018293038
0.037787784 -0.029705543 -0.0071008923 -0.024374317 -0.025820255 -0.026422458 0.0064813676 -0.011046762
-0.0022072091 0.0071219928 0.016834112 0.019081676 0.033178944 0.019669078 -0.03627341 0.004722519
0.034272417 -0.047070324 -0.014146185 0.010318674 0.023987984 0.028220052 -0.014246869 -0.0185227
-0.018002084 0.0028695997 0.012401994 0.022237085 -0.01569866 -0.019422205 0.019922964 -0.02236177
-0.035581753 -0.002416597 -0.012330113 0.00073322555 -0.031610027 -0.023247102 0.025728073 -0.018840265
-0.00027308895 0.030159272 -0.012537996 0.002596422 0.038447026 -0.03815577 0.04003119 -0.021003928
0.00084105245 0.030686762 -0.029961757 0.0059758793 -0.036416516 -0.0128373485 0.02520167 -0.015617096
0.022353776 0.024920637 0.014026306 0.0057710507 0.027665272 -0.0017374427 0.005180739 -0.017372325
0.010022075 -0.018932002 0.037822887 -0.019369338 -0.016457869 -0.03248586 0.0004570251 0.01879957
-0.012572303 0.016107908 0.03125348 0.01211593 0.020836063 -0.009728352 0.0087757 0.0063814186
-0.011735797 -0.014685702 0.02195308 -0.011537492 -0.018165693 -0.04023998 0.0056701233 -0.013411391
-0.029172713 0.035875123 -0.010481079 0.011827987 -0.04340644 -0.024452772 -0.01532187 -0.024629133

linear.weight f4 [2, 2560]
00000000: 604d 353c 59a6 db3b 4760 013c 85e6 8abc
00000010: 21b1 b23c 895e ac3c 7ecb 42bc 4b71 893b
00000020: afba a03c 534c 0bbb 2f22 363c b8f6 6e3c
00000030: 7ab2 813c a248 513c cf7b 9a3c 9c47 9bba
00000040: 18d3 2cbc 7d2e 1dbc 91e8 53bc 83a9 8ebc
00000050: 50af 94bb 66dd 2cbc 1594 ae3b 0742 26bc
00000060: 1632 27bc 6016 1fba d178 e9bb c8a8 3d3c
00000070: fc00 06bc 1496 1ebc 66f4 cf39 0b66 843c
00000080: 6ad8 d23b 440b 84bb 079b 0a3c be98 23bc
00000090: a79a c43b f4b8 103c dbb4 1bbc 7e63 a13c
000000a0: e73c 5c3c 3474 07bc c73b 1f3c 95d2 353c
000000b0: 780a c1bb 9735 2bbc c7f9 a03c 2208 463b
000000c0: 0fc3 903c b2dc 0f3c 9233 bcbb c481 14bc
000000d0: ca16 8ebc 73ac 4f3c 89d1 8e3c 82c5 79bc
000000e0: 5b72 8aba 2bc0 963b 54c0 33bc 832f 46bc
000000f0: a206 c6bb 3725 833c f664 263c 8b0a 1dbc
00000100: f8b3 9f3c 8655 943c 9f2a 5abb ad55 19bc
00000110: 4579 ebbb b01a 4f3c aa4e 7f3c 3db0 b13b
00000120: 3181 6c3b 231a e8bb 2803 523c 1e8b bf3b
00000130: 516f 423b bca1 52bb 147a 2ebc 3e92 65bc
00000140: ec7f a93a d18a d5bb 8635 723c 9e81 963c
00000150: c133 8ebc 0362 18bc d002 bd3b 4afc 303c
00000160: 9192 043c 0b90 98bc 3fa3 a93b a49e a53b
00000170: 0fe0 c43c f2a7 12bb 5e84 11bc 1b3c acbc
00000180: 7023 1cbb c8ff 133c fd75 c13c e930 96bb
00000190: fd73 8dbc b291 2d3c eb8f dd3b 45dc afbb
000001a0: 0dbb d2bc 7d56 e6bc 9fc9 11bd 5877 743b
000001b0: 0ece ba3c 4b42 9d3c 9327 42bb b932 473b
000001c0: 5bd8 673c ca6d f43a 5607 543c 7697 a03b
000001d0: 12b6 97bc 60bc c8ba 411c 063c 9e41 6ebc
000001e0: 1329 09bc e9d4 273c 1664 b1bb 0b85 04bb
000001f0: dba1 3e3b c225 d13c 5698 2dba 0342 3ebb
00000200: 120f e63b 1cd4 6b3c e4f0 bf3b 3de0 213c
00000210: aa5b d53a a729 52ba 4403 d73a dca3 603c
00000220: e717 e13b de8f 78bc 2f52 95bc 9334 03bc
00000230: 67d8 1fbc c4c7 713a 1d8a ff3a 4cf1 b43c
00000240: 5188 5ebb 6994 91bb 08c4 a6bc 1937 3cbc
00000250: 47a4 b43c 880f 0cbb d0fc c03b ed96 02bc
00000260: 6f42 813b f658 7a3c e3f5 a23b d0ae 4a38
00000270: 824e 993c 0495 e23b d354 98bb 0c91 5e3b
00000280: 9166 a2bb 3e57 99bb 34c7 25bc 7be7 b7bb
00000290: 4e5a b13c 246b 0bbc 9eca 47bc 74ed 9b3b
000002a0: 08e0 243c 7c5a a63c a85e 10bb e020 17bc
000002b0: 9f3b 92bb 8096 d63a 9cfa 283c 5a62 5fbc
000002c0: d61d 5f3c 0336 833c 1b85 c5ba bade 903c
000002d0: 21c0 2a3c ce81 c03c 6e8a 7abb 179d 3dbc
000002e0: c02b f6bb 73c0 c1bb 6eff 89bc f2bd 503b
000002f0: 910b 423c 1be3 4b3c f9c2 0dbc 8b82 58bb
00000300: abc1 39bc c6d8 d6bb 4066 1c3c 3a8f bcbb
00000310: 362d cbbb 3601 81bb 49a4 00bc ef6d 603c
00000320: 5bb2 3fbc da65 a6bb c500 983c 73f1 503c
00000330: 3999 26bc e1da 54bc 208a cbbb c78a bf3b
00000340: f0a5 40bc eba6 ae3c 7963 d63c 114d 7d3c
00000350: 09f5 ff3b f2ed 013c 5d14 36bc dac9 5f3b
00000360: 92c1 15bc a8e2 c4bc 2df1 5e3c dc02 3fbc
00000370: 8043 d839 24b0 ba3b a3e4 893c eba6 b43b
00000380: e43c fcbc c572 e5bc fe38 123c f54f 4a3b
00000390: e9c8 56bc 6938 3ebc ee1e 30b8 1d67 5a3b
000003a0: d466 6c3c 45ba ae3b 9463 f3bc ac53 84bc
000003b0: 76be 903c 2fc5 d23a 856e 8cbc 6cfe 0f3c
000003c0: ea46 833c aea3 c6bb a5b3 6dbc 2af1 13bc
000003d0: 30e8 8bbc cedf b23a 22ad 2c3b b60c 9d3b
000003e0: cc51 58bc ec30 30bc 0cdf 2c3c a686 c2bb
000003f0: 8be6 003b 5c98 29bb 601e 3fbc 4bff 85bb
0.011065811 0.00670318 0.007896489 -0.016955623 0.021812977 0.021041172 -0.011889337 0.004194414
0.019620268 -0.002125521 0.011116548 0.0145851895 0.015832175 0.012773665 0.018857865 -0.0011846903
-0.010548376 -0.009593603 -0.012933866 -0.017414814 -0.0045375004 -0.010550832 0.0053277113 -0.010147578
-0.0102048125 -0.0006068703 -0.007124998 0.011575885 -0.008178946 -0.009679336 0.00039664208 0.01616194
0.00643449 -0.0040296633 0.008459813 -0.009985147 0.0059998813 0.008833159 -0.0095035685 0.019700762
0.013442255 -0.008267451 0.009718842 0.01109757 -0.0058911406 -0.0104497885 0.019650353 0.003021725
0.017671136 0.008780645 -0.0057434523 -0.009064142 -0.017344851 0.012675392 0.017433899 -0.015244843
-0.0010562645 0.004600545 -0.010971148 -0.012096289 -0.006043271 0.016008956 0.010155907 -0.009585033
0.019494995 0.018107187 -0.0033289564 -0.009358806 -0.0071860873 0.01264064 0.01558272 0.0054226206
0.0036087746 -0.007083194 0.012818135 0.0058454415 0.00296684 -0.0032139858 -0.010649223 -0.014011918
0.00129318 -0.0065167923 0.014783269 0.018372353 -0.017358663 -0.009300712 0.0057681575 0.010802338
0.008091585 -0.018623373 0.005176931 0.005054312 0.02403262 -0.0022377935 -0.008881656 -0.021024754
-0.0023824833 0.009033151 0.023615832 -0.0045834673 -0.017267222 0.0105938185 0.006761541 -0.0053668343
-0.025723958 -0.028117413 -0.03559267 0.003730258 0.022803333 0.01919665 -0.002962564 0.0030395223
0.014150704 0.0018648442 0.012941202 0.004900868 -0.018519435 -0.0015314929 0.008185447 -0.014542012
-0.008371609 0.010243633 -0.0054135425 -0.0020220901 0.0029088173 0.0255307 -0.0006622126 -0.0029031045
0.0070208395 0.014393833 0.005857574 0.009880123 0.0016277928 -0.0008017071 0.0016404171 0.013710942
0.0068693045 -0.015171019 -0.018227665 -0.00800814 -0.009756184 0.0009223188 0.0019496117 0.022087716
-0.0033955763 -0.0044427407 -0.020357147 -0.011487746 0.02205099 -0.0021371562 0.0058895126 -0.007970554
0.003944687 0.015279999 0.0049731596 4.832336e-05 0.018714193 0.0069147367 -0.0046487837 0.0033960966
-0.0049560745 -0.0046795895 -0.0101182945 -0.0056123114 0.021649506 -0.008509431 -0.012194304 0.004758531
0.010063179 0.020306818 -0.0022029076 -0.009224147 -0.004462674 0.0016371757 0.010313656 -0.013634289
0.013617953 0.016016966 -0.0015069576 0.01768433 0.010421784 0.023499396 -0.0038229483 -0.011573098
-0.0075125396 -0.0059128343 -0.016845431 0.0031851497 0.011843578 0.012444283 -0.008652442 -0.0033036794
-0.011337678 -0.006556603 0.009545863 -0.0057543786 -0.006200458 -0.003936912 -0.007851669 0.013698085
-0.011700238 -0.0050780596 0.018555054 0.0127528785 -0.010168367 -0.012991638 -0.006211534 0.005845401
-0.011758313 0.021319827 0.02617048 0.015460269 0.007811193 0.007930266 -0.011113253 0.0034147413
-0.009140389 -0.02403386 0.0136073055 -0.011658397 0.00041249022 0.005697267 0.016832655 0.0055130622
-0.030790754 -0.028008828 0.008924721 0.0030870412 -0.013109424 -0.011610129 -4.1990475e-05 0.003332562
0.014428813 0.0053322637 -0.029710568 -0.01615318 0.017668944 0.0016080494 -0.017142544 0.008788686
0.016025025 -0.0060619926 -0.014508163 -0.009029666 -0.017078489 0.0013647021 0.0026348312 0.004792775
-0.013203096 -0.010753851 0.010551225 -0.0059364615 0.0019668664 -0.0025878167 -0.011664957 -0.004089271

linear.bias f4 [2]
00000000: 1013 853c 4543 943c
0.016244441 0.018098483
