AmbulanceProject/pth_files/fourth_91.pth (torch, 412231 bytes, 10 tensors)

conv1.0.weight f4 [16, 1, 3, 3]
000000 fa c5 da 3e c4 92 fc bd 2a 1c 4f be 5a 36 49 be
       0.4272917 -0.12332681 -0.20225587 -0.1964964
000010 7d a3 84 be 00 5f 8a 3e 2b a8 dc 3d cd 96 86 3d
       -0.25905982 0.27025604 0.10774263 0.06571732
000020 e6 34 7b be ec a4 12 3c b5 09 88 be 9b 4e fb bd
       -0.24531898 0.008950453 -0.26569906 -0.12270852
000030 1e f0 1f be 9f 58 3a be cc 4d 5d be f3 96 0f 3e
       -0.15618941 -0.18197869 -0.21611708 0.14022426
000040 d3 33 4b be 70 01 8f bc 67 2d a7 3e 19 37 18 be
       -0.19843988 -0.01745674 0.32651827 -0.14864768
000050 c4 9a 24 3e 2f 17 c6 bd 68 8d a9 be cf 85 4c bd
       0.16074663 -0.09672391 -0.33115697 -0.049932297
000060 59 d3 88 3e 2d 27 5a 3e e1 b9 2d 3d 4a 7f aa 3e
       0.26723745 0.21304007 0.042413596 0.3330024
000070 a5 cb 20 3e 48 01 16 be 7f a0 9e 3e 14 87 78 3d
       0.15702684 -0.14648926 0.30981824 0.060675696
000080 2e d7 83 bc 57 0b 8f be 98 a0 3d 3e 24 34 11 be
       -0.016093817 -0.2793834 0.18518293 -0.14180046
000090 7c ef cc 3e 2a 74 be 3d 5e b1 60 3e ce 2d b1 3e
       0.40026462 0.092995 0.2194266 0.3460526
0000a0 60 6d db 3d 73 4b 57 be fc 02 cf 3d 85 88 97 be
       0.10714221 -0.21024875 0.10107991 -0.29596344
0000b0 54 53 96 3e bd f3 eb 3d 49 cc a1 3e 38 56 aa 3e
       0.2936045 0.11521099 0.3160117 0.33268905
0000c0 93 35 b2 3e 9e 54 f1 bd 3c 7f 1d 3e 53 31 92 3d
       0.348065 -0.117837176 0.15380567 0.07138314
0000d0 96 17 77 be e3 6e af 3c 10 6e 70 3e 9a ee 7d 3e
       -0.24130091 0.02141518 0.23479486 0.2479805
0000e0 2e 08 28 bd 60 95 1b 3e 10 71 93 bd e8 17 81 bc
       -0.041023426 0.15193701 -0.07199299 -0.01575847
0000f0 7f 7f 84 3d 84 66 e6 bd 1e cd 82 3c 14 eb b9 bd
       0.064696305 -0.11250022 0.015966948 -0.09078041
000100 51 f4 87 bd 46 b8 6a bd 81 a4 89 3d 91 dd 1d be
       -0.066383965 -0.057304643 0.0672083 -0.15416552
000110 58 e0 30 3e 76 c7 71 be d8 bc d4 3e 68 e8 b9 3e
       0.1727308 -0.23611245 0.41550326 0.36310124
000120 16 17 92 be 9c fe 34 3d 54 0a e3 bd a3 32 99 3c
       -0.28533238 0.044188127 -0.11085954 0.018700903
000130 fc 74 15 3e 1c 2e b9 3b 58 e4 86 be 2e 10 fa 3d
       0.14595407 0.0056512486 -0.26346087 0.12210117
000140 8f b5 4e be 4d bb 19 be 70 b5 05 3e 84 af 03 bd
       -0.20186447 -0.15012856 0.13057494 -0.032149807
000150 34 38 a6 be 92 a4 87 be ba a2 d7 bd 45 24 07 3e
       -0.32464755 -0.26492745 -0.105290845 0.1319743
000160 2c fd c1 3d 27 c9 c3 3d 31 e0 2d 3e bf 64 f2 bd
       0.09472117 0.09559851 0.16980053 -0.11835622
000170 92 dd 7b 3e cf 4e 17 be ac 68 5f 3e 4e f2 98 be
       0.24596241 -0.14776157 0.21817273 -0.29872364
000180 94 ca 52 3e 32 05 0d 3d 32 76 9a bc 19 54 58 bd
       0.2058509 0.034428783 -0.018855188 -0.052814577
000190 5f 42 89 3e 03 ed 52 be 88 40 d1 3d f9 dc 09 3d
       0.2680845 -0.20598225 0.102173865 0.033658
0001a0 f0 14 8d be ad 9d 76 be fc 6c 9c 3e e7 1d 4d be
       -0.27555037 -0.24083586 0.30551898 -0.20030938
0001b0 1d 46 dd 3d 73 1a fb bd 17 86 9c 3e dd 62 57 3e
       0.10804389 -0.12260904 0.30571052 0.21033807
0001c0 45 2a ac be eb 13 34 3d 59 a3 d6 bd e8 4c 8a 3e
       -0.33626 0.043964308 -0.10480375 0.270118
0001d0 d3 9a 5d bc 23 1d 6a 3e 24 9d 1c 3d a7 65 b7 3d
       -0.0135256825 0.22862677 0.0382358 0.089549355
0001e0 fe bc d7 bd ce 31 87 be 0a 33 15 bd c9 2e 3c 3e
       -0.10534094 -0.26405185 -0.036425628 0.18377222
0001f0 36 f8 49 3e c0 7b 9a 3e 0b 00 70 bd 6e 62 9c be
       0.19723591 0.3017254 -0.05859379 -0.30543846
000200 2f 4a a7 be fe 68 2c 3e 58 6e 5c 3e d2 34 4b 3e
       -0.32673785 0.16836926 0.21526468 0.19844368
000210 19 08 3b bd 5d f2 0f be c2 dd 84 3e 2b 1b eb 3c
       -0.04566202 -0.14057298 0.25950438 0.028699478
000220 71 3d 9e 3d 2a f8 73 3e ce e6 21 be f3 d7 3f 3d
       0.07726563 0.23825136 -0.15810701 0.046836805
000230 d5 44 20 3e 71 ae 95 bd d0 3e de 3d d5 cb 61 3e
       0.15651257 -0.07308663 0.10851824 0.22050412

conv1.0.bias f4 [16]
000000 fb 9c 05 3e 4a 22 b5 be b8 0a 72 be 6f 88 77 be
       0.13048165 -0.35377723 -0.23636901 -0.24173139
000010 24 80 27 3d b6 56 ed 3d 28 fe 8f bd c2 0d a7 3c
       0.04089369 0.115888044 -0.07030898 0.020392302
000020 ae db 3d 3e 3f 20 65 3e 52 0f 14 3c 8a 42 6f 3d
       0.18540832 0.22375582 0.009036856 0.058413066
000030 2e 0d d0 bd 34 6a ee 3d db d7 91 3e 25 c4 3c be
       -0.10158764 0.116413504 0.28484997 -0.18434198

conv2.0.weight f4 [32, 16, 3, 3]
000000 fc cc 7b 3d 81 c2 29 3d e6 da 64 3c d6 31 99 bd
       0.061474785 0.04144526 0.013968205 -0.074802086
000010 48 5b 89 bc b7 17 29 bd 34 90 67 3d e4 7c 16 bc
       -0.01676716 -0.04128238 0.056534007 -0.00918505
000020 98 57 9f bc ea 8d 5a bd 7e 18 ae bd 6c 62 29 3d
       -0.019450948 -0.053357996 -0.08500765 0.041353628
000030 97 ff 5e bd fe 01 e3 bc 30 81 4d 3d 99 9c 9a bd
       -0.05444297 -0.02771091 0.05017203 -0.075494
000040 13 f2 81 bd aa f2 7f 3d 6e 53 9f 3d 2e 96 b5 ba
       -0.06345 0.06248728 0.07779585 -0.0013853961
000050 84 f5 ed ba 09 76 89 bc ed d3 73 bc 6f f6 ff bb
       -0.0018154834 -0.016779916 -0.01488207 -0.0078113596
000060 e7 e8 16 bd 0d 85 d0 3c b7 3f a2 3d 62 7e 0f 3c
       -0.036843207 0.025454069 0.07922309 0.008758159
000070 aa 6f 35 bd 0c 98 9b b9 4f a8 83 3d da 65 10 bd
       -0.044295944 -0.00029677188 0.06428587 -0.035253383
000080 62 b3 80 3c c9 99 21 bd 10 a4 36 bd d6 4a 1a 3c
       0.015710536 -0.0394533 -0.044590056 0.009417256
000090 d5 0d d5 3d 10 b6 95 3d 09 32 54 3d e3 1b 5d bd
       0.10403029 0.07310116 0.05180553 -0.053981673
0000a0 81 7a 23 bd 31 ff 97 3d f5 7e d1 bc 6b 9b 49 bd
       -0.03991175 0.07421721 -0.025573233 -0.049220484
0000b0 a3 03 11 3c ab 8b 6b bd d5 0d 23 3c 53 7f 5a 3d
       0.008850965 -0.057506245 0.009952028 0.053344082
0000c0 6b e8 ac 3d fd 82 96 3d e3 22 2b 3d 1d b4 03 bd
       0.08442768 0.07349203 0.041781317 -0.03215419
0000d0 2a d8 a3 3c 12 17 39 bd 9d ff 95 3d 6d 51 f2 bc
       0.020000536 -0.045188017 0.07324145 -0.029579842
0000e0 2f 53 c0 3d 04 f5 22 3d 6a a5 99 3c ac 30 7c 3d
       0.09390866 0.039784446 0.018755633 0.061569855
0000f0 d2 fa a6 3d 00 49 8d 3d 1f fc d7 bc 0f f2 22 bc
       0.08153309 0.06898689 -0.026365338 -0.009945407
000100 83 c2 5c bd d3 aa fe ba 25 9c 2b bd bc 14 a0 bc
       -0.05389644 -0.0019429572 -0.041896958 -0.019541137
000110 49 51 4f bd 62 83 fb bd b0 d5 0c be 2b 97 ff bd
       -0.05061463 -0.12280919 -0.1375339 -0.12480005
000120 c8 24 6e 3d 42 b2 8d bd c7 95 cd bc b9 3f a1 bc
       0.058140546 -0.069187656 -0.025095833 -0.019683706
000130 3d 65 45 bc 38 4e 89 3d ac 98 9b 3c 01 80 94 3c
       -0.012048063 0.06704372 0.018993698 0.018127443
000140 03 39 87 bd 8d aa 77 bd a0 24 0f 3d 9a 26 c8 bd
       -0.06602671 -0.060465384 0.034947038 -0.09772988
000150 ee 73 12 bd 40 94 a3 3d ea df 85 3d d2 c7 ba bb
       -0.03575509 0.07987261 0.06536849 -0.00570009
000160 0b 6c d7 bc 93 bd f4 bc 51 82 9a bc f5 01 a3 3d
       -0.026296636 -0.029875552 -0.018860968 0.07959358
000170 46 95 39 bc f3 5a 05 bc a8 10 8f 3c fb 90 0b 3d
       -0.0113270935 -0.00813936 0.017463997 0.03407381
000180 a6 96 32 bc 9a c1 20 bd 55 23 9b 3c 36 01 72 ba
       -0.010900175 -0.039247133 0.018937746 -0.0009231748
000190 bd aa 1c bd ce 3c 6e bd 2a 38 b6 3d 4d 1a 9b 3d
       -0.038248766 -0.058163457 0.08897431 0.07573376
0001a0 eb 17 06 3d ee c4 9c bc 5a d7 62 bd 50 cc 18 3d
       0.032737654 -0.019136872 -0.055381157 0.037304223
0001b0 c0 ed ec bc 64 c1 a4 bc f2 d8 b3 3d 0c 52 12 3d
       -0.028921962 -0.020111747 0.087816134 0.035722777
0001c0 30 b6 43 3d 5a ea 99 3d 03 d0 3d bd 5a a7 99 3c
       0.04778117 0.07515402 -0.046340954 0.018756557
0001d0 22 67 4d bd 3c fc 6b bd b0 ee 92 bc bc 20 68 3d
       -0.050147183 -0.057613596 -0.01793608 0.056671843
0001e0 d8 26 67 bd da ef 99 3b fa 73 4b 3d bc 6c 58 3d
       -0.05643353 0.004697782 0.04967115 0.052838072
0001f0 94 fa bf bc 7e d2 0a bd 1e 08 2a bd 97 8e be 3c
       -0.023434915 -0.033892147 -0.041511647 0.023261352
000200 0e c8 81 bd de 85 31 3d 60 0a 4c 3d 72 7e 16 3d
       -0.063369855 0.043340556 0.049814582 0.03674168
000210 3b 17 7b bd 84 60 19 be 8f 0d 94 bc 8b 46 b2 bc
       -0.06130145 -0.14978224 -0.018072871 -0.021762153
000220 3b 0f b3 3c 9e 0a 72 bc 77 66 dd bd 27 4e 80 bd
       0.021857848 -0.014773039 -0.10810559 -0.062649064
000230 8f ee bf bd 8c 32 37 3d 20 fd 70 bc 91 3d bb 3c
       -0.09371673 0.04472594 -0.014708787 0.022856506
000240 4d d9 ed 3d d5 ad 87 3d 75 01 0d bc 90 56 bc bd
       0.116137125 0.06624953 -0.008606304 -0.09196198
000250 bd 9d 72 3b ec 28 88 bc 40 bd 53 3d 55 43 00 3d
       0.003702029 -0.016621076 0.051694155 0.031314213
000260 e7 f4 af bb eb f2 4e 3b cd 86 09 bd 7b e9 76 3d
       -0.005369771 0.0031577896 -0.03357582 0.060281258
000270 18 c4 29 bd f5 5b 45 3d 85 64 75 bd aa 0e 73 bd
       -0.041446775 0.0481834 -0.059910316 -0.059340157
000280 bd 56 23 3d ac c5 52 bd c2 d5 8c 3c 48 45 af 3d
       0.039877642 -0.051458046 0.017191771 0.08558136
000290 5a bb 6e ba 00 f9 3f 3d a5 32 b1 bd 81 57 0f 3d
       -0.0009106897 0.046868324 -0.08652238 0.03499556
0002a0 97 38 c7 bd 01 a0 fb bd 2b 4e 0d bd af ed 40 ba
       -0.097275905 -0.12286378 -0.034498375 -0.00073596364
0002b0 99 8d 02 bd 55 13 be 3c e6 c5 d7 3c d3 25 c4 bd
       -0.03187332 0.023202578 0.026339483 -0.09577527
0002c0 66 3a 27 3d 95 e8 0e 3d bb 02 0a 3d ea 80 bd b9
       0.040827177 0.034889776 0.03369401 -0.00036144938
0002d0 3c 9e 22 3c 46 fc f7 3d 69 9f 7a bd 6a 9f 47 bd
       0.009925421 0.12108664 -0.06118718 -0.048736013
0002e0 f1 5a a5 bd db 3f 3b bd 9c 8e b9 bd a2 27 19 3d
       -0.08073986 -0.045715194 -0.09060404 0.037391312
0002f0 eb b4 c5 bd 2b 84 9b 3d 4d 52 67 bc 8d e3 ba 3d
       -0.09653648 0.075935684 -0.014118743 0.09125433
000300 c0 be 75 3d 0c 17 a0 bc a5 97 c1 bd c1 e2 62 bd
       0.059996367 -0.01954224 -0.09452752 -0.05539203
000310 4b 94 39 bd 91 9b 0c 3d 6a b1 be 3d 71 e0 2a bd
       -0.04530744 0.034328047 0.09311183 -0.04171795
000320 34 31 91 3d 1d 30 e7 bc 78 50 cc bc 91 6d 29 3d
       0.07089463 -0.028221184 -0.024940714 0.041364256
000330 7e 45 c6 bd 88 d6 a5 bd 78 f8 c6 3c eb 4c 65 bd
       -0.09681223 -0.08097559 0.024288401 -0.055981558
000340 2d d7 b9 bd 3b fa ba 3b 42 ce 9c bc 3e de 5a bd
       -0.09074245 0.0057060993 -0.01914132 -0.053434603
000350 9c 98 d6 bd 6b 4a f7 bd 3a 5c 01 be e8 ec 62 3d
       -0.10478327 -0.12074741 -0.12632838 0.055401713
000360 73 b5 1f 3d 9a 63 02 3d 48 50 a4 bd 06 1e 60 bd
       0.038991403 0.03183327 -0.08023125 -0.054716133
000370 ad 46 ed ba a0 76 62 bd aa eb 0b bd a9 9f 5d bd
       -0.0018102728 -0.05528891 -0.034160294 -0.054107342
000380 f8 2c 44 bd 27 cb 48 bd 38 ba 16 b8 3d 13 b6 3c
       -0.047894448 -0.049021866 -3.5936217e-05 0.02222597
000390 53 2c 73 bd e9 b6 ce 3d a9 e0 f7 3c 34 f4 25 3a
       -0.059368443 0.10093481 0.030258493 0.00063306396
0003a0 37 42 9a bd 21 1d dd 3b ca 6d 71 3d 63 78 24 3b
       -0.07532161 0.006747857 0.058942594 0.002509617
0003b0 c3 46 94 3d 9f 49 ba bd 33 73 64 3c e2 0d 92 3d
       0.07240059 -0.09096073 0.013943481 0.07131554
0003c0 13 5c b2 bc ae 7a 58 bc ea b6 f0 bc 9c 7a 8f 3c
       -0.02177242 -0.013212843 -0.029384095 0.01751452
0003d0 4e 2e 86 3d 85 32 f4 3d dd 11 b8 3c a3 10 11 bd
       0.06551801 0.11923698 0.022469455 -0.035416257
0003e0 18 4f 31 3d 10 a7 c4 bc 6c 01 b6 3b 93 96 a3 bd
       0.04328832 -0.024005443 0.0055543687 -0.07987704
0003f0 0c 46 30 3c 83 5f a0 bd 91 14 c8 bd 0e d8 7f 3d
       0.010758888 -0.078307174 -0.09769548 0.062461905

conv2.0.bias f4 [32]
000000 ea 52 7e bc db 01 df 3c df cb 9e bc 1f 52 7a bd
       -0.015522698 0.027222564 -0.019384323 -0.061113473
000010 25 85 ac 3d 38 24 43 bd 82 28 bb 3d ad 2f 92 bd
       0.08423833 -0.047641963 0.091385856 -0.07138
000020 63 f7 df 3b 25 b1 3b 3d 12 30 28 bb 76 3b 65 3c
       0.0068349107 0.045823235 -0.0025663418 0.013991227
000030 52 33 3e 3c ca b1 8d 3d 42 a5 7a 3b db 59 82 bc
       0.011608915 0.06918676 0.0038245474 -0.015911987
000040 09 d1 5f 3c e9 d1 5b bc e0 93 35 3d 3f 67 88 b9
       0.013660678 -0.013416746 0.044330478 -0.00026016866
000050 58 fb 30 3c d3 f5 24 3d b9 03 33 3b b1 48 cd 3c
       0.0108021125 0.0402735 0.0027315451 0.025059076
000060 77 ab 8b bd 13 36 bc bc 58 e4 6b 3d 43 03 47 3d
       -0.06819814 -0.022975003 0.057590812 0.048587095
000070 9d ad 92 bc 17 95 09 3d 2f 0e bc 3c 3c ac 37 3d
       -0.01790505 0.03358945 0.022955982 0.04484199

conv3.0.weight f4 [64, 32, 3, 3]
000000 40 84 1c 3d 54 72 64 3d 6e 2b 80 3d f4 c5 1e 3d
       0.03821206 0.055773094 0.062582836 0.038763
000010 db 58 2b bc d4 88 82 bd 41 70 30 3c 7e a7 17 bb
       -0.0104581965 -0.06373754 0.010768951 -0.0023140605
000020 8c b6 e2 bb f2 58 9b 3d 07 57 a4 3d 41 6c ac 3b
       -0.006918734 0.07585324 0.08024412 0.0052619283
000030 db 5a 13 3d 05 95 e6 bc 21 e3 3b bd 3b ce 22 bd
       0.03597532 -0.02814723 -0.045870904 -0.039747458
000040 ca 3a cc bc 60 a2 9b bb e5 33 21 3d af 4e 8e 3d
       -0.024930377 -0.004749581 0.03935613 0.069486015
000050 22 c2 08 3c 66 63 00 3d b1 c2 9e 3c 91 42 b4 3c
       0.008347066 0.031344794 0.019379945 0.022004398
000060 49 5b 1f 3d bd 18 01 bd 45 6f 94 bb db 11 e8 bc
       0.038905416 -0.031517733 -0.004529866 -0.028328827
000070 83 63 d8 bc b7 6e ad bc 10 20 ef 3c 2c 65 0a b8
       -0.026414638 -0.021170957 0.029190093 -3.2995988e-05
000080 79 1d 82 bc b4 e6 51 bd ae 15 54 bb 28 ee 69 bd
       -0.015883194 -0.051245406 -0.0032361555 -0.05711189
000090 33 f4 0a 3d bd ae 0e 3d 11 47 58 3d 07 7f 51 bc
       0.033924293 0.034834612 0.05280215 -0.012786633
0000a0 41 fc c6 bc 6b 4f ef 3c 59 b3 09 3c 2a 3c 85 bc
       -0.024290206 0.029212674 0.008404576 -0.01626404
0000b0 5c 49 36 bd 51 00 49 bc d4 d7 c5 3c e6 82 01 3d
       -0.044503555 -0.012268142 0.024150766 0.031618975
0000c0 92 cb 98 bd d3 c5 2f 3c c3 22 fc 3c cb 86 b6 bc
       -0.07460703 0.010728317 0.030778294 -0.022281071
0000d0 96 80 9d 3b 24 b8 81 bc 37 2d be 3d 95 e5 ad 3c
       0.0048065884 -0.015834875 0.09285968 0.021227637
0000e0 76 b2 6e 3d 32 52 cf 3b cf 39 43 bb ec 15 98 bc
       0.058275662 0.006326937 -0.0029789095 -0.01856514
0000f0 e1 2f 39 bd ee 5e 53 bd 39 ec a1 3c 80 fb 42 3d
       -0.045211677 -0.051604204 0.01976596 0.04760313
000100 20 30 3f 3d dd 74 a0 3d 0a e5 f6 bc 5d 06 cd bc
       0.046676755 0.0783479 -0.030138511 -0.025027448
000110 de 90 ab 3b d0 85 71 3c c9 98 40 3b 1e e4 9e 3c
       0.0052357754 0.014741376 0.0029387942 0.019395884
000120 da 14 55 3d 01 cf 55 3d ea 0b 51 3d 21 ea a7 bb
       0.05202184 0.052199367 0.051036753 -0.005124346
000130 c7 4f 6a bb b3 57 5b bd 8e 3c 40 bd f6 13 09 bd
       -0.0035753117 -0.053550433 -0.04693275 -0.0334663
000140 5c 84 31 3d ee 27 1d 3e 5e f9 e4 3d 14 27 7e 3d
       0.04333912 0.15347263 0.111803755 0.062048987
000150 3b 63 db 3b 65 47 1f 3d d3 67 92 3b ed 1e 7c 3d
       0.006695179 0.038886447 0.004467943 0.06155293
000160 3b 56 48 3d a2 56 f1 3c 3e 05 52 3d 5b d0 d5 3c
       0.04891036 0.029460255 0.05127453 0.026100328
000170 77 a0 e3 3d 85 6a 1e bc d9 a4 8f 3b 8f fd 51 bd
       0.111145906 -0.009668951 0.004383665 -0.051267203
000180 bb cd f3 3c b6 1b 20 3c ff 18 60 3d b8 27 43 3b
       0.029761186 0.009772232 0.054711338 0.0029778313
000190 e5 34 c9 3b 20 89 a6 bc 65 62 1d 3d 7c c0 56 3d
       0.0061403387 -0.020329058 0.038423914 0.05242966
0001a0 87 d4 a7 bc e9 76 da bc 30 66 f9 3c ac 3e 76 3c
       -0.020487083 -0.026668029 0.030444235 0.015029591
0001b0 e1 f0 45 bc ad fb ca 3c e7 bc 28 bd f3 0b b2 3c
       -0.012081356 0.024778211 -0.041195776 0.021734213
0001c0 0c 54 e5 3a d9 95 51 bd aa fb e6 bc 73 8a 15 3d
       0.0017496361 -0.051168296 -0.028196175 0.03650899
0001d0 a6 3c 05 bd 90 a7 2b 3d 50 23 14 bc 82 5b 90 3d
       -0.032528542 0.041907847 -0.009041622 0.07048704
0001e0 49 c3 7d bd 2f 20 e5 3c 53 4c e7 bc 28 f1 4e 3d
       -0.061953817 0.027969448 -0.028234636 0.050522953
0001f0 ab f7 10 bd 0b fc 98 3b 0f 28 1b 3d 28 f4 64 bc
       -0.035392445 0.0046687177 0.03788 -0.013974227
000200 7c 18 58 ba 8f f9 b1 3c 2a e2 3a 3c dc 0a 3b bd
       -0.00082433945 0.021725444 0.011406461 -0.045664653
000210 c5 f8 4b bb 16 ff 06 bb 09 fe 1f bd 5f 73 87 3d
       -0.003112362 -0.002059882 -0.039060626 0.06613802
000220 7b f5 2b bc 4d 04 a7 3d 4b 7d 19 bd ed 58 82 3c
       -0.010495539 0.08155117 -0.037473004 0.015911544
000230 21 a8 50 bd 9e 51 81 3a ca 5b 23 3c f6 27 4c bb
       -0.05094159 0.0009866243 0.009970615 -0.0031151748
000240 f9 a7 ca bb 04 41 3e 3c e4 5b 7b 3c 24 b8 a5 bc
       -0.0061845747 0.011612181 0.015341733 -0.020229407
000250 2b 0d cd bc e8 9e 72 3d 75 98 ae bb d6 d2 1b 3d
       -0.025030693 0.059233576 -0.005328233 0.038042866
000260 98 ea 1f bd 37 cf a4 3d e3 af 99 3d b8 0c 61 3d
       -0.039042085 0.080473356 0.07504251 0.05494377
000270 66 ea 83 bc 88 cb 11 bd ad 02 83 bc ed d8 6d 3d
       -0.01610298 -0.035594493 -0.015992487 0.058068205
000280 eb 39 67 bd 41 73 65 3d b2 ad 9b 3d 65 1f 2f 3d
       -0.05645172 0.056018118 0.07601489 0.04275455
000290 4a cc cf bc a4 bd 7d bd 12 2b da bc de e9 12 bd
       -0.025365967 -0.061948434 -0.026631866 -0.035867564
0002a0 11 0c e7 3c b6 0d b7 3c 6d ed 13 3d a3 98 4f 3c
       0.028203996 0.022345405 0.0361151 0.012670669
0002b0 13 af 34 3c d9 08 60 bc b4 26 a3 3d f0 43 2e 3d
       0.011028069 -0.013673984 0.079663664 0.04254526
0002c0 54 00 2d 3d 4c b9 9d 3c 7c f2 42 3c 4a be 1c bc
       0.04223664 0.019253395 0.011898633 -0.009566853
0002d0 a5 4a 6f 3c de fb 56 3c 1b 18 ac 3d f1 12 bf 3c
       0.014605199 0.013121573 0.08403035 0.023324462
0002e0 a9 9f 91 bd ab 28 0f bd 08 9c df bc ae 2f 70 3b
       -0.07110531 -0.034950893 -0.027296081 0.0036649513
0002f0 d3 08 9a bc f2 d7 4f bc e4 8b 35 bd a3 f3 86 bc
       -0.018803036 -0.012685763 -0.044322863 -0.016473597
000300 61 34 70 bc f6 16 eb bb 9f 4a 5b bd 97 3b b3 3c
       -0.014660926 -0.007174368 -0.05353796 0.021879
000310 f5 fc 37 bc be 8a 61 bd 2e 8c f5 bb 9d 9c da bb
       -0.011229743 -0.055063955 -0.0074935174 -0.006671502
000320 7c e3 87 3d 97 e4 5d bd df 73 16 bd 02 97 e3 bc
       0.06635186 -0.05417308 -0.036731597 -0.027781967
000330 18 10 6a bc 63 ff 99 3c dd f7 6b ba f4 99 9e 3d
       -0.014286064 0.018798536 -0.0009001473 0.07744208
000340 b4 4b c1 3d fd 9e 88 3c f2 9e 6f bd b8 80 09 bd
       0.09438267 0.016677374 -0.05850119 -0.03357002
000350 cc 53 e1 3c 8b a2 98 bd c3 69 fe bc 58 e2 aa 3c
       0.027505778 -0.074528776 -0.03105629 0.020859882
000360 d8 8b a4 3c b1 40 b6 3d fa 2b 91 bc e5 d1 03 bd
       0.020086214 0.08899058 -0.017721165 -0.032182593
000370 b3 f1 32 bd ce 04 b8 bc c5 b5 43 bd 76 93 45 3d
       -0.043687534 -0.022463229 -0.04778077 0.048236333
000380 e3 2b 42 3d 07 3f 04 3d 72 3e 99 3c 4f 80 dc 3b
       0.047405135 0.03228667 0.018706534 0.0067291628
000390 c5 9f cf 3c fb fd 12 3c 7b 76 6c bd 9e 74 24 bd
       0.025344739 0.0089716865 -0.05773018 -0.040150277
0003a0 0b 6a de bc 8f 5a eb ba a0 c3 be 3d 3b b7 49 3d
       -0.027150175 -0.0017956066 0.09314656 0.049247008
0003b0 9e b3 c1 3d 8b 08 8e bd 35 64 91 bd 24 95 96 bd
       0.094580874 -0.06935223 -0.07099191 -0.07352665
0003c0 b2 0e 17 3d 37 4b 1e 3d 89 b9 38 bd e5 0b eb 3d
       0.03687925 0.03864595 -0.045098815 0.11476878
0003d0 26 ab 8e 3d ff 96 ec 3d 3e b7 8b bc 20 08 f6 3b
       0.06966238 0.11552238 -0.01705515 0.007508293
0003e0 0f 10 83 3b 3c 81 d6 bd 72 1e d9 bc 0e aa bc 3c
       0.003999717 -0.10473868 -0.026503775 0.023030307
0003f0 33 0c 2a bc e8 c3 a1 3c aa d3 9c bd 88 16 a3 3c
       -0.010378885 0.019746736 -0.07657559 0.019908205

conv3.0.bias f4 [64]
000000 8a d7 11 bd 4b 88 d3 bc 0d bd 5e 3c 18 f0 1a 3d
       -0.035605945 -0.025821825 0.013594878 0.037826627
000010 80 5a 6d 3d 63 1f ce 3b 5d b4 82 3c 7e d0 d6 3d
       0.057947636 0.0062903627 0.015955145 0.104889855
000020 fd 1c 4f bd 89 b4 0a 3d 9b 1b 56 bc 9d 6c 4e bc
       -0.050564755 0.033863578 -0.013068105 -0.012599138
000030 4d 9c bd 3b 77 2d 2a bd b2 d9 d3 3b e6 55 6e 3d
       0.005786455 -0.041547265 0.0064651603 0.058187388
000040 5c 5c 36 3d 08 a9 57 3d ba d5 02 3d 8b 0a 11 bb
       0.044521675 0.052651435 0.031942107 -0.0022131528
000050 b7 13 cb 3c 3b e6 70 3c 02 54 06 bc 69 77 b6 3c
       0.024789674 0.014703329 -0.00819874 0.022273736
000060 22 ea a3 3d 1a 28 dc 3c a9 10 90 bd 96 3e 25 bd
       0.08003642 0.02687459 -0.07034428 -0.04034289
000070 94 19 5a 3c d2 14 e4 3c f6 87 7b bc 64 79 44 bc
       0.013311762 0.02784196 -0.01535224 -0.011991832
000080 a7 ce 14 3d 32 7e f1 3b 9d fb 7c 3b eb 46 c2 3c
       0.03632989 0.00736978 0.0038602122 0.023715457
000090 17 0c bb 3c 93 b1 c9 bc 30 b4 58 bd dd 2b 12 3d
       0.022832913 -0.024620807 -0.052906215 0.035686363
0000a0 88 c8 ea 3c 4f 3d 29 3d ed 82 3a 3d 3b 4d ea 3b
       0.028660074 0.041318234 0.045535017 0.00715032
0000b0 96 c5 24 3c c8 52 1d bc 4b 0d 3a bd 97 38 3e bd
       0.010056874 -0.009602256 -0.045422833 -0.046440687
0000c0 be bc 58 bc 81 13 b6 bc df 62 44 bd 37 97 31 3b
       -0.013228593 -0.022226097 -0.047945853 0.0027098188
0000d0 27 f5 cb 3c 62 69 92 3c 03 35 0e 3c 58 cc 2e 3d
       0.024897171 0.017872516 0.008679631 0.042675346
0000e0 64 16 aa bc b7 89 3a bd c6 f9 7b 3d d4 26 77 3c
       -0.02076263 -0.04554149 0.0615175 0.015084941
0000f0 26 e6 02 3d 4a 73 bc 3c 96 32 f3 39 93 8e 19 3c
       0.031957768 0.023004193 0.0004638626 0.009372371

conv4.0.weight f4 [128, 64, 3, 3]
000000 86 4b 2f 3c c5 77 cd bc d5 6b 36 bd f5 df 40 bb
       0.010699159 -0.025081525 -0.04453643 -0.0029430364
000010 a7 a4 1d 3c 26 66 2b 3c e2 52 6a bd 6d 4d 0f bd
       0.009621776 0.010461366 -0.05720795 -0.03498595
000020 56 b6 03 3c a9 f8 1a 3c cb b9 2a 3d fb 3e 8a 3c
       0.008039078 0.009458699 0.041681092 0.016875735
000030 85 85 0d bc 1a 0e 8b 3b d7 bb a3 ba 9f 06 9b bc
       -0.008637791 0.0042436244 -0.0012491894 -0.018924056
000040 0a b0 ca 3a 55 b9 20 3c a6 b5 15 bd e3 c1 37 bd
       0.0015463841 0.009809812 -0.036550187 -0.04486264
000050 5d c7 08 bd 28 d6 9a bc f7 23 0a 3d 06 96 10 3c
       -0.033393253 -0.018900946 0.033725705 0.008824831
000060 cc 99 8a bc 48 01 4b bd d0 3d 41 3b bf e4 a1 3a
       -0.01691904 -0.04956177 0.0029486306 0.0012351497
000070 77 f5 ec 3c ac eb a3 ba 12 5a 0b 3c ba 23 f8 3c
       0.02892564 -0.0012506149 0.008505361 0.030290473
000080 53 50 0c 3d fb fa 8c 3a 24 63 37 bc 2c 5f c0 3c
       0.03425629 0.001075595 -0.011193071 0.023482881
000090 3a 2b e6 3b cd 9f 61 bc 3f 06 ef bc f4 f2 7b 3c
       0.007024196 -0.01377101 -0.029177783 0.015377749
0000a0 79 58 cf 3c 93 2f 2c 3c 9d 59 54 bc 09 5b 03 bd
       0.025310742 0.010509389 -0.012960819 -0.03206924
0000b0 9f 80 8b bc ad f7 8f 3c d9 64 2f bc 91 b5 04 3d
       -0.017029105 0.017574156 -0.010705196 0.032399718
0000c0 00 4e 04 bd 19 b9 42 bd cf d2 00 3c 1d 2c b2 bc
       -0.03230095 -0.047539804 0.007862761 -0.02174955
0000d0 9b 7a 1e bd f3 6a c2 3c b6 39 56 bc 7d 9f 92 bd
       -0.038691144 0.023732638 -0.013075283 -0.07159326
0000e0 ef b7 d7 bc 27 f9 12 3c 53 2c e4 3c 8d 1b 1a bc
       -0.026332824 0.008970535 0.027853167 -0.009405983
0000f0 51 fd 48 bb 51 94 91 bd 95 2c f0 bb 80 ca 16 3c
       -0.0030668566 -0.07108367 -0.0073295333 0.009203553
000100 44 fb 00 bd 66 73 da 3c d7 28 23 3b 5c 4a 12 bd
       -0.031489626 0.026666354 0.0024896169 -0.035715446
000110 0f d1 fd 3c 6f ef 7a bc 08 0e cd 3c d6 2a b8 bb
       0.030983476 -0.0153158745 0.025031105 -0.005620341
000120 d6 f7 49 3b 62 5d 71 bd ff c4 d8 3c 74 0e 02 bd
       0.0030817888 -0.058926947 0.026461123 -0.031752065
000130 4f db 73 3b 1a fe 01 bd 53 9e 71 3c da 42 39 bd
       0.0037209576 -0.03173647 0.01474722 -0.04522977
000140 a8 21 1b bd 12 87 c3 3c 55 fa 1e 3d 88 f9 a3 3c
       -0.037873894 0.023868117 0.038812954 0.020016447
000150 00 57 33 bd d8 db 69 3c 21 c6 11 3b a3 9d c7 bc
       -0.04378414 0.014273606 0.0022243338 -0.02436716
000160 35 67 32 bd f2 8d d0 3c 74 c6 ec 3c ac a7 76 3c
       -0.043555457 0.02545831 0.028903224 0.0150546245
000170 e8 c6 ae 3c 63 f0 0b 3c 18 7b 34 bd 43 c2 03 bd
       0.02133508 0.008541199 -0.044062704 -0.032167684
000180 66 66 9b bb c9 c5 79 ba 15 05 56 bd ee cf 17 bc
       -0.0047424315 -0.00095280685 -0.05225094 -0.009265883
000190 f5 55 b6 bb 27 79 6d 3c db 12 65 bd 2d 53 32 bd
       -0.005564446 0.014494217 -0.055926185 -0.043536354
0001a0 67 65 22 bc 35 02 3e bd 4f 7f b9 bc ca 33 05 3c
       -0.0099118715 -0.046388824 -0.022643713 0.008130023
0001b0 7a 37 12 bc d0 c2 5f 3c a8 4f 62 bd 44 13 0e 3d
       -0.008924359 0.013657287 -0.055251747 0.034686342
0001c0 48 bd a3 3b 68 24 10 bc 19 0e 39 bd a9 7b 06 bd
       0.0049969293 -0.008797742 -0.04517946 -0.032832775
0001d0 58 65 4d bd fc 74 a3 3b a3 62 f6 3a d7 0c 9d 3c
       -0.050145477 0.004988311 0.0018797707 0.019171162
0001e0 32 95 36 bd 97 c4 6f 3c 1e 77 62 3b 03 99 8a ba
       -0.044575877 0.014634273 0.0034555863 -0.0010574165
0001f0 81 08 c8 bc b2 9c 48 bd d6 28 06 bd f3 d6 48 bd
       -0.024418117 -0.04897756 -0.032753788 -0.049033117
000200 28 04 8e 3b ce 57 9f 3b a5 0c 0e bd a7 29 02 3c
       0.0043339916 0.004862762 -0.034680028 0.007944501
000210 82 e0 1c bd 5f dc 79 bd c0 2c 9d 3c ed 68 14 3d
       -0.038300045 -0.061001178 0.019186378 0.036232878
000220 33 ec 23 bd de 14 0d 3d f7 cb 42 bd 8c a3 72 bc
       -0.04002018 0.03444373 -0.047557797 -0.0148095
000230 33 7a 01 3d df 93 9f bc 64 0e bc bc e0 c3 5f 3c
       0.03161068 -0.01947969 -0.02295608 0.01365754
000240 92 e3 fc 3c a3 f3 57 3c 1b 5f 58 bc 83 2d ca 3c
       0.030870233 0.013180646 -0.013206269 0.024679905
000250 44 9f 69 3b e0 cd 05 3d ce 2a 20 bd 9a b2 84 bd
       0.0035647908 0.03266704 -0.03910332 -0.06479378
000260 29 19 06 3d a4 68 a6 3c c7 b4 18 bd 74 e9 c5 bc
       0.03273884 0.020313568 -0.037281778 -0.02415917
000270 6f 4e f4 bc d9 a4 1e bd d8 c0 22 3d 47 2c 64 3c
       -0.029822556 -0.03873143 0.03973469 0.013926572
000280 29 f1 7d bc fb 4a b1 bc 81 3e 55 bd 31 32 16 bd
       -0.015499392 -0.021642199 -0.05206156 -0.03666896
000290 e9 15 13 3c 61 bd bc 3c b2 e9 fb 3c c1 14 3d 3c
       0.008977392 0.023039522 0.030751083 0.011540593
0002a0 2a d6 05 bd f8 4a 16 bc c4 1a 5e bc ae 7b 25 3b
       -0.032674946 -0.009173147 -0.013556186 0.002525072
0002b0 1f 26 2b 3b e1 8e f3 bc 8b 7b fc 3b 1b db 1a b8
       0.0026115251 -0.029731216 0.007705157 -3.692052e-05
0002c0 ec cf 9e 3c f0 57 73 bd a2 6c 7f bc 3c ce d0 3c
       0.019386254 -0.059410036 -0.015589865 0.025488965
0002d0 7c b3 a5 bc 0c a6 d0 bc 92 b6 43 3c 89 8c 58 3c
       -0.020227186 -0.025469802 0.011945384 0.0132171
0002e0 3c 6e 9a 3b af 48 45 b8 d5 70 11 bd 4c 02 01 3d
       0.004712848 -4.7036152e-05 -0.035507996 0.03149633
0002f0 ab 5a 26 3d 0b ae 84 38 f9 5b 7a bd 0c 34 8e bd
       0.04061381 6.3266685e-05 -0.06112287 -0.06943521
000300 84 a0 f7 3c 67 18 0d bd 1f 3e c0 bc d3 3c be bb
       0.030227907 -0.0344471 -0.023467122 -0.0058055907
000310 cf 1e 3a bd 24 12 5f bb c9 f1 00 3d 69 fd 37 bb
       -0.045439538 -0.0034037912 0.031480584 -0.0028074628
000320 e1 68 6a 3c 7b 4d 23 bc 3d bf a1 bc ea 69 1c bd
       0.014307232 -0.009967203 -0.01974451 -0.038186945
000330 0a da 03 bd 0a e6 e3 3b c7 76 28 bd be 5b f7 bc
       -0.03219036 0.006954913 -0.0411289 -0.030195113
000340 be 1c eb bc f3 34 dd 3c 29 01 da bc ab 3e 0f bd
       -0.028700229 0.027002787 -0.026611881 -0.034971874
000350 aa 58 a8 3c bc 50 6a 3b 3e 03 48 3c 11 fe bb bb
       0.02055009 0.0035753688 0.012207804 -0.005737074
000360 61 5e 8f bb 17 c8 07 3d a6 fc 74 bc 5e 61 04 3d
       -0.0043752645 0.033149805 -0.014952814 0.03231942
000370 bd 4d dc 3c 48 a0 90 bc 90 f9 e5 3c 77 05 20 3d
       0.026892537 -0.017654553 0.028073102 0.03906771
000380 23 1b 71 3c b7 8c 05 bd 2e e0 0f 3d 34 37 d4 bc
       0.014715943 -0.0326049 0.035125904 -0.02590523
000390 b3 da 81 bc cf 8f 08 bd 1f a3 b9 bc f3 92 96 3b
       -0.015851354 -0.03334027 -0.02266079 0.0045951544
0003a0 24 32 4a bd ad a0 5f 3b 17 7e e8 bc c9 2a 01 3b
       -0.049364224 0.003412287 -0.028380437 0.001970934
0003b0 c3 5b 0d bd b3 5b 35 3b 7d e3 ae 3b 5b c7 26 bd
       -0.03451134 0.0027673065 0.0053371773 -0.040717464
0003c0 7f 3b 34 bd 93 7e d9 3c b2 74 1f bc 58 5a 19 3d
       -0.044002052 0.026549613 -0.009732412 0.037439674
0003d0 7b b8 e7 3c 65 cf f0 3c 45 97 13 bb 03 29 12 bd
       0.02828621 0.029395768 -0.0022520584 -0.035683643
0003e0 ab 31 15 3d 5d 54 5b 3c 3c 60 2f bd f2 57 62 bc
       0.03642432 0.013386813 -0.042816386 -0.013814913
0003f0 cd 25 0a bb ab dc 25 bd 9d c7 ed bc af c1 4c 3c
       -0.002107966 -0.04049365 -0.029025847 0.01249735

conv4.0.bias f4 [128]
000000 19 02 69 bc 27 d0 08 bd e8 47 4c 3c f2 e5 d8 3c
       -0.0142216915 -0.033401635 0.012468316 0.026476834
000010 65 b5 8a 3c 4b be 06 3d bf 80 0c 3c 95 74 7d bc
       0.016932199 0.03289632 0.008575617 -0.01546969
000020 22 87 40 3d fb c0 aa 3c 62 e0 73 3b 3e ab 02 3d
       0.047003873 0.020843973 0.00372126 0.03190159
000030 93 9b 85 bb 8a 89 df bc 4c 7d 18 3d 50 fa 05 3d
       -0.004077384 -0.027287263 0.037228867 0.03270942
000040 04 41 08 bb dd eb bb 3c 99 8e 29 bd 10 d5 cb bb
       -0.0020790705 0.022939617 -0.041395757 -0.0062204674
000050 9c 7f 55 3c 58 61 45 3c ef 00 e2 3c 99 3c 15 3d
       0.013030913 0.012047134 0.027588336 0.036434744
000060 a3 45 e5 bc ee 74 df bb 0d 7e 3d bc c2 b3 56 bd
       -0.027987307 -0.006819359 -0.011565697 -0.052417524
000070 a0 16 27 3c f5 a9 18 3d b9 fa 0f bc 22 c8 b5 bc
       0.010198265 0.03727146 -0.008787804 -0.022190157
000080 2f 58 c9 bc 88 07 3f 3d 0e 0f 33 3c 9c 55 0a 3d
       -0.024578182 0.04663804 0.010928882 0.03377305
000090 d0 1c 24 3c a0 88 1a 3b 41 e6 f4 3a b3 fe 95 bc
       0.010016635 0.002357997 0.0018684344 -0.018309927
0000a0 c9 cb 4d bc 41 3d 03 3c f0 c8 e2 bc 82 1e 51 3d
       -0.012560793 0.00801021 -0.027683705 0.051054485
0000b0 4d 0a 2b 3d 4b 6a 8e 3c 3f 94 03 bd 88 91 9c bc
       0.04175787 0.017384669 -0.0321238 -0.019112363
0000c0 b5 12 23 bd 60 56 fb 3b 52 4c 5f 3d b9 5e bc 3c
       -0.039812762 0.007670209 0.054516144 0.022994386
0000d0 bf 7a 87 3c 96 4c 04 bc ee b6 1a bd 59 47 ac bb
       0.016538022 -0.0080749 -0.03777211 -0.0052575287
0000e0 cf 7b dd 3c 1b 22 1c bd 4d fe b8 3b cb 7c 2f bd
       0.027036576 -0.038118463 0.0056455494 -0.04284362
0000f0 22 ac a9 bc e1 97 6d 3c ed 1d 49 3d 36 e8 50 3c
       -0.020711962 0.014501543 0.049100805 0.012750676
000100 4f c1 b5 3c cf dc 31 bd 08 e8 ac 3b 80 d8 13 bd
       0.022186903 -0.04342347 0.0052766837 -0.036095142
000110 1a db 9a bc 0b c7 b0 bc 73 39 1d ba c8 9e 5d 3c
       -0.018903304 -0.021579286 -0.00059976353 0.013526626
000120 86 4a cb ba 58 98 a2 3c 43 f4 78 bc c0 63 59 bd
       -0.0015509881 0.019848034 -0.015194955 -0.053073645
000130 1b 83 f6 ba 42 fc d0 bc c1 68 db bc 9b 7e 7d bc
       -0.0018807383 -0.02551091 -0.026783349 -0.01547208
000140 7e 02 c6 bc 99 bb df 3c 06 6f 1b 3d df 3b 1e 3d
       -0.02417111 0.027311133 0.037947677 0.038631316
000150 94 2a 1f bd f5 d0 c7 3c 1c de e0 3c 4d 4c 14 3d
       -0.038858965 0.02439163 0.02744966 0.03620558
000160 bc 21 ab bc 58 4f 08 bd d6 de cc 3a 21 33 db bc
       -0.02089011 -0.033278793 0.0015630375 -0.026757779
000170 38 fb 1f 3d 33 51 0a bb b4 c8 b9 ba 32 60 68 bc
       0.03905794 -0.0021105527 -0.0014174194 -0.014183091
000180 f8 68 18 3d b7 86 c4 bc 5c ba 8e bc 66 30 0d bb
       0.03720948 -0.023990018 -0.017422847 -0.002154374
000190 e6 f8 5d 3d 20 3e 65 bc cd e9 29 3c 4f 54 b3 3a
       0.054192446 -0.013991863 0.010370684 0.0013681742
0001a0 06 a1 b0 3b 4d 7d 19 3d 6c 9e 17 3d 7b 57 5e bc
       0.0053902892 0.03747301 0.037016317 -0.013570662
0001b0 1d 7f 17 bd b5 c4 4b bc ba 02 0a 3c 9d 24 36 3d
       -0.03698646 -0.012437035 0.008423502 0.04446851
0001c0 61 1a c3 3c 78 03 d9 3c f8 cb 48 bc 5b 12 22 bc
       0.02381629 0.026490912 -0.012255661 -0.009892072
0001d0 f6 65 8f 3c 89 a1 e4 bb a9 b7 40 bb 50 d2 be bb
       0.017504673 -0.0069772643 -0.0029406345 -0.005823411
0001e0 00 59 df bb 6d a3 e8 bb 25 a0 0e bc f3 f6 a4 3c
       -0.0068160295 -0.00709956 -0.008705174 0.020137286
0001f0 1a 34 12 3a ed 9b c2 ba 14 11 cf 3a e2 c1 72 bc
       0.0005577222 -0.0014847495 0.0015797936 -0.014816733

linear.weight f4 [2, 2560]
000000 8a b3 52 bc 96 33 b2 bc d9 ff 2d ba ff cf 94 bc
       -0.012860188 -0.021753114 -0.00066375505 -0.018165587
000010 d8 ce a1 3c d3 6a 55 bb 3d 12 c9 bc 53 74 b7 bc
       0.019751951 -0.0032564893 -0.02454483 -0.022394335
000020 f8 3b 01 bd 54 92 aa 3c 5c a4 07 3a 15 84 09 bc
       -0.03155133 0.020821728 0.0005174333 -0.008393307
000030 96 2b c7 b9 e6 a3 f7 3c 24 72 8a 3b fb 33 d4 3c
       -0.00037988712 0.03022952 0.0042250324 0.025903692
000040 75 2d 9e 3c b8 ab 62 3c 1c 97 8f 3b 9b f5 d8 3c
       0.019308785 0.013834886 0.0043820273 0.026484301
000050 3d 91 01 3c 34 2e a2 bc 99 69 8b 3a da 29 a3 3c
       0.007908163 -0.019797422 0.0010636329 0.019917417
000060 d2 5d 75 3c 18 9e a0 bc 4b 9c 80 3b 14 d8 b7 39
       0.014975982 -0.019606635 0.0039248816 0.0003506547
000070 5f 8c c5 3c 34 7b a8 3c 32 0c a1 bc 39 82 13 bc
       0.024114786 0.02056656 -0.019659135 -0.0090032155
000080 9d c6 f0 bb d9 b2 06 bc a2 16 4b bc 6b a1 65 bc
       -0.0073478953 -0.008221352 -0.012395533 -0.014015536
000090 cf d7 a7 3c 51 0b 1c ba 7a 50 8e 3a af 7e ea bb
       0.020488648 -0.0005952614 0.0010857724 -0.007156215
0000a0 1b c5 9f 3c 39 ac a6 ba 80 fe 31 bc ea e8 9a bc
       0.019503167 -0.0012716121 -0.0108639 -0.01890989
0000b0 b5 1c 4a 3c 10 5a 61 3c f0 ce 91 3c 06 a9 90 3c
       0.012335946 0.013754383 0.01779887 0.017658722
0000c0 35 7e 5d bd 62 5e 87 bc 46 c6 dd bb ab 05 01 3d
       -0.05407544 -0.016524497 -0.006768021 0.031499546
0000d0 13 ea 92 3d 89 86 29 bc ec 1c de ba cc 05 ad bc
       0.07173552 -0.010347017 -0.0016945875 -0.021120928
0000e0 52 c2 87 3c 0e 2e 27 bd eb 1f dd bc 39 1e 9e bc
       0.016572151 -0.040815406 -0.026992759 -0.01930152
0000f0 c9 14 9e bc 52 07 68 3c 6f 87 f2 3a c9 f2 37 3d
       -0.01929702 0.014161902 0.0018503497 0.044909272
000100 d1 00 27 3c af 72 01 3c 91 ab 75 3c 8e 0a 19 3b
       0.010193066 0.007900878 0.014994518 0.0023352238
000110 30 15 6a 3c cc ef 57 3b dc a4 93 3b 5b 5f e2 bb
       0.014287278 0.0032949327 0.0045057368 -0.00690834
000120 25 7e 25 3c ce e1 d3 bb 28 c2 e4 bb da 67 66 bc
       0.010100876 -0.006466127 -0.006981153 -0.014062846
000130 67 20 c2 bb 25 ee f6 bb cb 95 a5 bc a0 fb a0 3a
       -0.005924273 -0.0075357133 -0.020213028 0.0012282021
000140 c0 18 18 ba b1 f0 2e 3c 8c 8e 73 bc 16 a5 26 ba
       -0.0005802028 0.0106775025 -0.014865529 -0.0006356997
000150 3f 4c 06 bd 74 33 bf b9 83 11 6e bb 48 8a 94 3c
       -0.032787558 -0.00036468694 -0.0036326356 0.018132344
000160 1f ef 13 3c c0 f0 c2 3c 57 5e e4 3a d1 ed 5b 3c
       0.009029179 0.02379644 0.0017423135 0.013423399
000170 2e a7 79 3c 41 68 93 3c 34 6f 93 ba fa f1 04 bc
       0.015237613 0.017994048 -0.0011248351 -0.008114332
000180 94 a8 1d 3d 13 0f b4 3c b4 be 25 bb aa 25 30 3c
       0.038490847 0.021979844 -0.002529067 0.010751167
000190 82 39 b7 3c 37 ad c3 3b 82 83 59 bb ff ef dd 3c
       0.022366289 0.0059715766 -0.0033189957 0.027091978
0001a0 b8 71 1f bd 8c 36 11 bd b6 4b 11 bd 90 67 08 bd
       -0.03892681 -0.03545241 -0.035472594 -0.03330189
0001b0 33 29 a1 3c 6c 68 2f 3d 14 a4 0e 3d 70 91 af 3c
       0.019672966 0.042824194 0.034824446 0.021431655
0001c0 0c 60 ee 3b 29 bc 80 ba 13 d3 a9 3b c8 86 8c 3b
       0.0072746333 -0.0009821701 0.0051826327 0.004288528
0001d0 53 65 a8 3c d6 86 50 3b b1 49 86 3c 93 71 17 3c
       0.020556128 0.003181865 0.01639256 0.009243387
0001e0 bd c1 31 3c 0b 10 2a bc f2 73 17 3c 7e 6b 87 3c
       0.010849413 -0.0103798015 0.009243952 0.016530748
0001f0 8c 85 90 bd ae 2b db bc 65 5f aa bc a2 66 fe bc
       -0.07056722 -0.026754227 -0.02079744 -0.031054799
000200 48 c6 08 3d 7e de 21 3d 83 7f 2f 3d be 43 69 3d
       0.03339222 0.039518826 0.042846214 0.05694937
000210 b3 72 10 bd 86 b3 00 bd 89 1a 45 3b 3a 1e 2e bc
       -0.035265636 -0.031421207 0.003007563 -0.010627324
000220 99 48 07 3d 54 46 20 3d 87 01 fe 3b 2f 3f b1 3c
       0.03302822 0.03912957 0.007751647 0.021636574
000230 8d d3 16 bd b8 30 87 bb eb ff 9f bc 25 31 9e 3a
       -0.036822844 -0.004125681 -0.01953121 0.001206909
000240 45 6d 9c bc eb 84 dd 3c d9 a0 a8 3b b6 15 ec 3c
       -0.019095073 0.02704092 0.0051461277 0.028818946
000250 eb f0 c1 bb d2 38 3d bc 2f d3 69 bb cb ae 6e 3c
       -0.0059186122 -0.011549192 -0.0035678854 0.014568041
000260 a2 61 d3 3c b6 6e 90 3b af 37 a0 bc ed bb 4c bc
       0.02580339 0.004407729 -0.019557802 -0.012495977
000270 7e 06 ee 3c 5a 1c 0d bd f7 26 6e bd 06 0e 01 bd
       0.02905583 -0.034450866 -0.05814263 -0.031507514
000280 b0 0d 7c bc a7 64 6a 3d 8e 6d 94 3c 27 3d a3 3a
       -0.015384123 0.057224896 0.018118646 0.0012454138
000290 7f ca 5b bd 8a c4 aa 3c 6b 87 b7 bb 70 1f 18 3c
       -0.053659912 0.02084567 -0.00560086 0.009284839
0002a0 f6 56 c7 3c b4 f3 a4 3c c6 57 6b 3c 9a bf d2 3c
       0.024333458 0.020135738 0.014364189 0.025726128
0002b0 4c f4 2d 3d 0f 4b 80 3d 36 38 73 3d ef ca 0c 3c
       0.042469308 0.06264316 0.05937978 0.008593305
0002c0 e6 f7 e6 3c 0e f6 06 3d ba 7d e9 3c 0f 3d 03 bc
       0.028194379 0.0329495 0.028502334 -0.008010163
0002d0 e2 45 19 bd 48 cf 29 bc 73 87 7e bb 42 3c 37 3d
       -0.03742016 -0.010364361 -0.0038838058 0.0447352
0002e0 f6 fc 78 3a 2d 85 96 bc b5 22 19 bc d7 c6 2c bd
       0.00094981433 -0.01837405 -0.009346654 -0.042181816
0002f0 c9 7b d3 3b b5 78 f3 3c 31 4d 48 3d 8c 87 5c 3d
       0.0064539653 0.029720644 0.04890174 0.053840205
000300 9b c4 8e 3c d4 15 33 bc 20 5a 2f bc e2 b6 0c 3c
       0.017427733 -0.010930497 -0.01070264 0.008588525
000310 39 12 e6 bb ef 0d 99 ba c1 aa 43 3c f0 e2 92 bc
       -0.0070212153 -0.0011677126 0.011942566 -0.017930478
000320 a4 b0 8c 3c 05 f0 f9 3b e0 bb 65 3c eb cf 58 3b
       0.017174073 0.0076274895 0.014021844 0.0033082913
000330 f1 7b 94 bd 70 26 ac bc 9f 2e 34 bd 5e 2b 03 bd
       -0.072502024 -0.021014422 -0.043989774 -0.03202378
000340 ae 44 d0 3c 6d e7 02 3d 21 55 1f 3d 2d 18 79 3d
       0.025423374 0.031958986 0.038899545 0.06081407
000350 27 a1 ad 3b c6 3d ec ba 94 2e 1a bc 43 e8 b9 3c
       0.005298752 -0.0018023781 -0.009410519 0.022693759
000360 9c b3 f7 3c 14 6e d4 3c 58 cc 2b 3c 33 a8 6a 3c
       0.030237012 0.025931396 0.010485731 0.014322328
000370 20 35 17 bc b3 78 5f 3c 30 9f 89 3c 23 2d 97 3b
       -0.009228975 0.013639617 0.01679954 0.004613535
000380 e6 b3 b7 bd ac cb 02 bd 7a 78 78 bd ff ae 18 bd
       -0.0896986 -0.031932518 -0.06066177 -0.037276264
000390 5e 4e 0d 3c 23 59 fd 3c 4c f1 fe 3c c9 a7 26 3d
       0.008624641 0.030926293 0.031120919 0.040687356
0003a0 86 7a 0f bc 72 f5 98 3a 77 3a 61 bc ac 1e 04 3c
       -0.008757239 0.0011669828 -0.013746849 0.008063953
0003b0 99 8c ff 3c 49 6a 91 ba 14 3b b4 3c af 8c 2b 3a
       0.031194972 -0.0011094298 0.022000827 0.0006544096
0003c0 5d 82 32 bc b9 26 c6 3c a1 90 57 bc b6 66 61 3c
       -0.010895339 0.024188386 -0.013157041 0.013757398
0003d0 5e 82 1e bc 5e b1 00 bd 89 3e 94 bc 40 00 e3 bc
       -0.009674637 -0.03141915 -0.018096225 -0.02771008
0003e0 73 c8 3a 3d 7a b4 3e 3d 75 f3 32 3d fe a4 b7 3c
       0.04560132 0.046558835 0.04368921 0.022417542
0003f0 a9 bf b0 3c f1 09 75 3c 0a 02 90 3c 34 04 9e 3c
       0.021575766 0.0149559835 0.017579097 0.019289114

linear.bias f4 [2]
000000 ac dc 46 bb e6 cd 36 bc
       -0.0030343933 -0.011157488
