AmbulanceProject/pth_files/second_91.pth (torch, 412231 bytes, 10 tensors)

conv1.0.weight f4 [16, 1, 3, 3]
0	0x3e7df712	0.24801281
1	0x3eb8e9a8	0.36115766
2	0x3e47413e	0.19458482
3	0xbeae92b3	-0.34096298
4	0xbe12e865	-0.14346464
5	0x3da81383	0.082068466
6	0xbe9277b5	-0.28606954
7	0xbe34f183	-0.17670254
8	0xbc881baa	-0.016614754
9	0x3e9c05a2	0.30473047
10	0x3e0c10e0	0.13678312
11	0x3e739bd7	0.23789917
12	0x3e8409c4	0.257887
13	0xbd991d52	-0.074762955
14	0x3e963915	0.29340425
15	0x3df1e314	0.1181089
16	0xbe64eb9c	-0.22355503
17	0xbd64715d	-0.055772174
18	0x3da93ea5	0.082639016
19	0x3e253841	0.1613474
20	0xbeb33fa8	-0.35009503
21	0x3def3775	0.116804995
22	0x3bf7d55c	0.007563276
23	0x3e3c090d	0.18362828
24	0xbdfa10e9	-0.122102566
25	0xbca69a00	-0.020337105
26	0x3e2610a3	0.16217284
27	0xbe8ce030	-0.2751479
28	0x3e8828f8	0.26593757
29	0xbcc40fa7	-0.023933245
30	0x3ecf216d	0.4045519
31	0x3d88b6ba	0.06675477
32	0xbe2612f6	-0.1621817
33	0x3dc95d60	0.09832263
34	0xbe1d6c61	-0.15373375
35	0x3ea544f0	0.32279158
36	0xbd92612a	-0.07147439
37	0xbe62b39d	-0.2213883
38	0x3d221ce3	0.03957833
39	0x3e98687e	0.2976722
40	0xbe8e8f86	-0.27843875
41	0x3e6761b0	0.22595859
42	0x3e352d85	0.17693146
43	0xbe5eda1d	-0.21762891
44	0xbc7bdd9b	-0.015372659
45	0x3d835c8e	0.06414138
46	0x3e3032e1	0.17206909
47	0x3e926279	0.28590754
48	0xbe409e49	-0.18810381
49	0x3e01dec8	0.1268264
50	0xbea0a082	-0.31372458
51	0xbd3df92f	-0.046380218
52	0xbe0bbbd0	-0.13645864
53	0x3eb0f9ad	0.34565488
54	0xbd9100cf	-0.07080232
55	0x3ea32d4e	0.31870502
56	0xbdd4cd57	-0.10390728
57	0xbe9280cf	-0.28613898
58	0x3e44e4d3	0.19227915
59	0xbe70ef73	-0.23528843
60	0xbd57af37	-0.052657332
61	0x3e381359	0.1797613
62	0xbd105e70	-0.035246313
63	0xbd95f076	-0.07321255
64	0x3eafb9e5	0.34321514
65	0x3e3587cb	0.17727582
66	0x3ea5f50a	0.32413512
67	0xbdcc8577	-0.09986394
68	0x3dc79e69	0.09747011
69	0xbe383c28	-0.17991698
70	0xbd4f49af	-0.05060738
71	0x3e817a54	0.2528864
72	0xbe9d3227	-0.30702326
73	0xbe971b75	-0.29513136
74	0xbddf0e9a	-0.10891457
75	0x3dfccf29	0.123442
76	0xbe8b3ef7	-0.27196476
77	0xbe24b094	-0.16082984
78	0x3e6afa15	0.22946961
79	0xbe51a4fd	-0.20473094
80	0x3e29cdf2	0.16582468
81	0xbdf78f00	-0.12087822
82	0x3e24cedd	0.16094537
83	0xbdef608c	-0.11688337
84	0xbc3e2e63	-0.011607739
85	0xbdcb9a43	-0.099415325
86	0x3ecaa616	0.3957984
87	0x3e1ca0b2	0.15295675
88	0xbe684acc	-0.22684783
89	0x3e615d1a	0.22008172
90	0xbea0263c	-0.3127917
91	0x3d935b2b	0.07195123
92	0x3ea71dde	0.32639974
93	0xbdeea7a0	-0.11653066
94	0xbdc7548b	-0.09732922
95	0xbe942963	-0.28937826
96	0xbe734ef1	-0.23760583
97	0x3e2e38f3	0.17013912
98	0x3eaf1b39	0.34200457
99	0xbda040e2	-0.078248754
100	0x3cd971d0	0.026543528
101	0x3d70dd90	0.05880505
102	0x3e800740	0.2500553
103	0x3e1305a3	0.14357619
104	0x390fe7b3	0.00013723857
105	0x3e9af27e	0.30263132
106	0xbe09e441	-0.13465978
107	0x3d7a4aa1	0.061106328
108	0xbd1120df	-0.03543174
109	0x3eb83d3d	0.3598422
110	0xbc6f01be	-0.014587818
111	0x3dca1686	0.09867577
112	0x3e04262f	0.12905191
113	0x3db6e545	0.089304484
114	0xbe47f35c	-0.19526428
115	0x3cd1807d	0.025573963
116	0xbe42e465	-0.19032438
117	0xbe4e3ee1	-0.20141174
118	0x3c99ecbe	0.018789645
119	0xbe741f06	-0.2383996
120	0x3eae0921	0.3399134
121	0xbe8b3728	-0.27190518
122	0xbe993d6d	-0.29929677
123	0x3e5c77d4	0.21530086
124	0x3e6e546d	0.23274393
125	0x3e8f37ee	0.27972358
126	0x3e3aa0e4	0.18225437
127	0xbe57dc55	-0.21080144
128	0x3e8c5d61	0.27414992
129	0x3ea52189	0.32252148
130	0x3e636193	0.2220519
131	0xbd8ec77b	-0.06971642
132	0x3e832ca0	0.25619984
133	0x3d003446	0.03129985
134	0x3d18b49b	0.037281614
135	0x3e7a64da	0.24452534
136	0x3d8c2f37	0.06844943
137	0x3ca72cc1	0.020407083
138	0xbdbe39da	-0.09288378
139	0x3e4f6abd	0.20255561
140	0xbb2aefcc	-0.0026082871
141	0x3e954f9d	0.29162303
142	0xbe373d7f	-0.17894553
143	0x3e48363c	0.19551939

conv1.0.bias f4 [16]
0	0x3e687d73	0.22704105
1	0x3e38b884	0.18039137
2	0x3e2e90ba	0.17047396
3	0xbd94ed9c	-0.07271883
4	0xbe2ab263	-0.16669612
5	0x3c7499a3	0.014929208
6	0x3e083981	0.13303186
7	0x3dc9e624	0.09858349
8	0x3dfb3687	0.1226626
9	0x3e59b9c5	0.21262272
10	0x3e598d4b	0.21245305
11	0xbc6b6ec5	-0.014369671
12	0x3c8178a8	0.015804604
13	0x3c6306f3	0.013856637
14	0x3bd12b37	0.0063833254
15	0x3c13d0f8	0.00902199

conv2.0.weight f4 [32, 16, 3, 3]
0	0xbcba8058	-0.022766277
1	0x3ce835e7	0.028346015
2	0xbd436af2	-0.047709413
3	0x3d74d648	0.059774667
4	0xbd54bc0a	-0.05193714
5	0xbd23fe1d	-0.040037263
6	0xbdbd276b	-0.09236034
7	0xbd18797d	-0.037225235
8	0xbdfd70bd	-0.12375019
9	0x3cffcba9	0.031225042
10	0x3d045828	0.032310635
11	0x3d649d4b	0.05581407
12	0x3d4a4109	0.04937843
13	0xbd5e2a7e	-0.054239742
14	0xbc0026cc	-0.00782175
15	0x3d9b6324	0.07587269
16	0x3d0eea3f	0.034891363
17	0xbd7c56c8	-0.0616062
18	0xbd83e212	-0.06439604
19	0xbcb75c67	-0.022382928
20	0x3d94b6ae	0.07261406
21	0xbc233f77	-0.009963862
22	0xbd1b914c	-0.037980363
23	0x3d7a4617	0.061102
24	0x3d36bc9c	0.044613466
25	0x3c18108d	0.00928129
26	0x3d629ea7	0.055327084
27	0xbcfa3bdc	-0.030546121
28	0xbc512790	-0.01276578
29	0xbd88a776	-0.06672566
30	0xbda4eead	-0.08053336
31	0xbc9b289e	-0.018940266
32	0xbd128b80	-0.03577757
33	0xbd4c9f00	-0.04995632
34	0x3c0740ac	0.008255165
35	0xbbb8fd91	-0.005645462
36	0x3bbd5d47	0.005778942
37	0x3cfe45f2	0.031039212
38	0xbce94e99	-0.028479861
39	0x3d07977d	0.033103455
40	0x3c0895aa	0.008336464
41	0x3bf3622b	0.007427474
42	0xbd48bfb5	-0.04901095
43	0x3d968bd3	0.07350888
44	0x3bf55645	0.007487091
45	0x3c17ee97	0.009273193
46	0xbd770bb3	-0.06031389
47	0xbd513265	-0.05107345
48	0x3d217b0e	0.039423995
49	0x3d8e2602	0.06940843
50	0xbc5c851b	-0.013459469
51	0x3d224d5c	0.039624557
52	0xbbed8e29	-0.007249613
53	0xbd794c85	-0.06086399
54	0xbd8e9764	-0.06962469
55	0xbdab7ce7	-0.083734326
56	0xbd3fec9a	-0.0468565
57	0xbd00f039	-0.031479094
58	0xbd922f28	-0.071379006
59	0xbdaa4fcc	-0.08316001
60	0x3ccb2c42	0.024801377
61	0x3d80916a	0.062777355
62	0xbcbeec93	-0.023306167
63	0xbda66c37	-0.08126109
64	0xbd340fa8	-0.043960243
65	0x3b6437f2	0.0034823385
66	0x3c662fbb	0.014049466
67	0x3cab37fd	0.02090072
68	0xbdc58e5e	-0.09646295
69	0x3c45cf96	0.012073418
70	0xbc7a8f72	-0.015292989
71	0x3d31cee8	0.04341021
72	0xbd351214	-0.044206694
73	0x3d51afda	0.051193096
74	0x3da0ffdc	0.07861301
75	0xbc28ab2f	-0.01029472
76	0x3d3a23d6	0.045444332
77	0xbde476d2	-0.11155476
78	0xbb399d46	-0.0028322502
79	0x3d40bc4b	0.04705457
80	0x3d4b6019	0.049652193
81	0xbd866be9	-0.06563551
82	0x3cedf1e3	0.029046005
83	0x3d65a16c	0.056062147
84	0xbdb95ff2	-0.09051503
85	0xbd0eebb2	-0.034892745
86	0xbdc106ac	-0.09425101
87	0xbd550340	-0.052005053
88	0xbd18828e	-0.03723388
89	0x3d3668aa	0.04453341
90	0xbd8c3649	-0.068462916
91	0x3d11df66	0.03561344
92	0xbd55432e	-0.05206602
93	0xbdd18c5d	-0.1023185
94	0x3c01a75c	0.007913437
95	0x3c630b3c	0.013857659
96	0x3c24a805	0.010049825
97	0xbca924bb	-0.020647397
98	0xbd811cab	-0.06304296
99	0x3d160e43	0.036634695
100	0x3d752752	0.059851952
101	0xbc423d4e	-0.0118554365
102	0xbcef5c6a	-0.029218871
103	0xbd856ee8	-0.06515294
104	0xbda2a034	-0.079407126
105	0xbd85d1fc	-0.06534192
106	0xbd8245e5	-0.063609876
107	0x3caf67e7	0.02141185
108	0x3d3838d8	0.044976085
109	0xbcc74b14	-0.024327792
110	0x3d5afacf	0.053461846
111	0xbd9fc2f0	-0.07800853
112	0xbd442828	-0.04788986
113	0x3d4274ff	0.047474857
114	0x3da25a77	0.07927411
115	0x3c684abf	0.014177977
116	0x3db5d047	0.088776164
117	0x3d5e4710	0.05426699
118	0xbb97b5c6	-0.0046298234
119	0xbd1d7f7e	-0.038451664
120	0xbdc84bda	-0.097800925
121	0xbcbda551	-0.023150118
122	0x3c962d48	0.018332139
123	0xbc3cb97f	-0.011518835
124	0xbaa1dd52	-0.0012349284
125	0x3d9922b3	0.074773215
126	0x3d0b12f7	0.033953633
127	0x3ce0de3a	0.027449716
128	0xbcb9a4ce	-0.022661593
129	0xbdaf8102	-0.08569528
130	0x3ca0bb90	0.019620687
131	0xbd111452	-0.03541977
132	0xbc77a477	-0.015114895
133	0x3ca443b3	0.020051813
134	0xbc95473a	-0.01822244
135	0xbc9e5435	-0.019327262
136	0xbce14af4	-0.02750156
137	0xbd86c8c9	-0.065812655
138	0x3cba1208	0.022713676
139	0xbd065b69	-0.03280202
140	0x3cf1bfd3	0.029510414
141	0xbcad7453	-0.021173632
142	0xbdabcfc3	-0.08389237
143	0x3c8cc557	0.017183943
144	0x3d86ebcb	0.06587943
145	0x3ca58675	0.020205716
146	0xbd905189	-0.070468016
147	0x3d1ee5e4	0.03879346
148	0xbb6ac866	-0.0035825013
149	0x3db0f85a	0.08641119
150	0xbd3f7a44	-0.04674746
151	0x3c17c388	0.009262927
152	0xbd96ecdd	-0.07369397
153	0xbdb62a8d	-0.08894835
154	0xbda5982e	-0.080856666
155	0xbda5aa0a	-0.08089073
156	0x3cef8d3c	0.02924215
157	0xbcfc7bd0	-0.030820757
158	0x3d6b72f9	0.057482693
159	0xbd4ed6e6	-0.050497912
160	0xbd99e97e	-0.07515238
161	0x3ad0aabe	0.0015920026
162	0xbd242540	-0.040074587
163	0xbb0fc3bc	-0.0021936735
164	0x3d94e539	0.07270283
165	0xbd18f5ad	-0.03734367
166	0xbc1ae0f1	-0.009453044
167	0x3d90947f	0.070595734
168	0xbc45509a	-0.012043143
169	0xbcca1b09	-0.024671094
170	0xbd3e7a8d	-0.046503592
171	0xbd65797f	-0.05602407
172	0x3bf2e069	0.0074120057
173	0xbcd9b49f	-0.026575385
174	0x3d4acbe9	0.04951087
175	0x3c63f9fd	0.013914582
176	0x3d425012	0.047439642
177	0x3d8633fa	0.065528825
178	0x3da7c982	0.081927314
179	0x3ca6db38	0.020368204
180	0xbd6f9062	-0.058487304
181	0xbcd955b5	-0.026530126
182	0x3bbea8f2	0.0058184797
183	0x3d2f7260	0.042833686
184	0x3d3d7f26	0.046263836
185	0x3d1e1683	0.038595688
186	0xbc369852	-0.011144714
187	0xba084571	-0.0005198336
188	0xbafa23a0	-0.0019084103
189	0x3d04bffa	0.032409646
190	0x3d255810	0.040367186
191	0xbd055141	-0.032548193
192	0xbdbbe52d	-0.09174571
193	0xbd85b8ea	-0.0652941
194	0xbc660f92	-0.014041798
195	0xbd36d6ae	-0.04463833
196	0xbd86d453	-0.065834664
197	0xbd237c92	-0.03991372
198	0x3d80427c	0.06262681
199	0xbd9360e7	-0.07196217
200	0xbd836e43	-0.06417515
201	0x3d46afd5	0.04850753
202	0x3cfe9dc3	0.031081086
203	0xbb4ebb9b	-0.0031544927
204	0x3d02bf77	0.031920876
205	0xbbbae47e	-0.005703508
206	0xbd92ba3f	-0.0716443
207	0xbd8b47ac	-0.0680078
208	0x3afc9c08	0.0019272575
209	0xbd9827d3	-0.07429471
210	0x3d0efa28	0.034906536
211	0xbd12b826	-0.03582015
212	0xbd63015d	-0.055421222
213	0x3d33f787	0.043937232
214	0x3db0733a	0.08615728
215	0xbcd9fb60	-0.026609123
216	0x3bd76db1	0.0065743555
217	0xbce614b0	-0.028086036
218	0xbd0884e1	-0.03332985
219	0xbcff8bbf	-0.031194566
220	0x3d62a6ce	0.05533486
221	0x3ac1e9d1	0.0014794414
222	0xbd9f036d	-0.07764325
223	0x3cb54437	0.022127254
224	0xbd45efa4	-0.048324242
225	0x3d0e3a75	0.034723718
226	0xbd73e365	-0.059543032
227	0x3cfdd20d	0.03098395
228	0x3ccb6d8b	0.024832508
229	0x3d633562	0.05547083
230	0x3d040861	0.032234553
231	0xba809d84	-0.0009812568
232	0x3d5ac744	0.05341269
233	0x3db21a46	0.086964175
234	0x3d4397b7	0.04775211
235	0xbd3dc49d	-0.046330083
236	0x3d9431d3	0.07236066
237	0xbdc7eea4	-0.09762314
238	0xbd62e61a	-0.055395223
239	0xbc5976ff	-0.013273
240	0xbd93e94e	-0.07222234
241	0xbd9411c1	-0.07229949
242	0xbd7f31a7	-0.06230321
243	0x3d14820a	0.036256827
244	0x3c039eb6	0.008033445
245	0x3cf9f52f	0.03051242
246	0xbd0f3cb4	-0.03497
247	0xbda6fdd4	-0.081538826
248	0x3d4a4ee8	0.049391657
249	0xbd0b6cf6	-0.03403946
250	0x3cfca97f	0.03084254
251	0xbd913ac0	-0.07091284
252	0x3d0239bf	0.031793352
253	0xbdbba6e5	-0.09162692
254	0xbdd5061f	-0.10401558
255	0xbd57fb68	-0.052729994

conv2.0.bias f4 [32]
0	0xbd196be3	-0.037456404
1	0xbda1e850	-0.07905638
2	0x3d9d08cd	0.07667694
3	0xbd4614c5	-0.04835965
4	0x3cfa8f48	0.0305859
5	0xbd5b8545	-0.053593893
6	0x3d11ae1d	0.035566438
7	0x3d11070c	0.03540711
8	0x3cec7ead	0.028868997
9	0x3d3946b7	0.045233455
10	0x3d6b2fc0	0.057418585
11	0xbcf5e625	-0.030016968
12	0x3c98ea2d	0.018666351
13	0xbd9ebdaf	-0.07751023
14	0xbd0980b3	-0.033570003
15	0xbc70f735	-0.014707376
16	0x3bd8d19e	0.006616785
17	0xbd962ba4	-0.073325425
18	0xbd265270	-0.040605962
19	0x3d4072c5	0.046984453
20	0xbd2a37b1	-0.041557018
21	0xbd7df76f	-0.06200355
22	0x3d043005	0.032272357
23	0xbe0199e2	-0.12656358
24	0x3ddc669c	0.10761759
25	0xbc90a0c2	-0.01765478
26	0x3d7024ef	0.058628973
27	0xbd0f4c1d	-0.034984697
28	0xbcd3e0e6	-0.025864076
29	0x3d4acb46	0.049510263
30	0x3d01d5e5	0.031698126
31	0x3c4e3744	0.012586419

conv3.0.weight f4 [64, 32, 3, 3]
0	0x3befd1d9	0.007318717
1	0xbc53cc33	-0.012927103
2	0x3ce9abe1	0.028524341
3	0x3d01b437	0.031666007
4	0xbcdcf45a	-0.026971985
5	0x3cfdd156	0.030983608
6	0xbd3617a5	-0.044456143
7	0xbd60e93c	-0.05490993
8	0x3d2e7956	0.042596184
9	0x3aa723fd	0.0012751814
10	0x3ca86dc0	0.020560145
11	0xbcb8ae9e	-0.022544201
12	0x3ba6ea6a	0.0050938623
13	0xbc95ca29	-0.018284874
14	0xbcad58be	-0.02116048
15	0xbd05986a	-0.032616057
16	0xbc64fe13	-0.013976592
17	0x3c62c76b	0.01384149
18	0x3dabe3d7	0.083930664
19	0x3df4a211	0.11944974
20	0x3d583232	0.052782245
21	0x3cac457f	0.021029232
22	0x3c841f78	0.016128287
23	0xbd947cbf	-0.07250356
24	0xbc36a73e	-0.011148272
25	0xbb961621	-0.0045802747
26	0xbca8ca1e	-0.02060419
27	0xbb964839	-0.0045862463
28	0xbd740cd4	-0.059582546
29	0x3d4822b8	0.048861235
30	0xbc3fb3f3	-0.011700618
31	0xbd4a35d6	-0.04936775
32	0x3d0cc82b	0.034370583
33	0x3d4cf9f4	0.05004306
34	0x3ca95ea5	0.020675013
35	0xbc37a378	-0.011208408
36	0xbd0f5d68	-0.03500119
37	0x3c8e9f25	0.01740987
38	0x3c3b02d9	0.011414253
39	0x3abcd63d	0.001440711
40	0xbc99af21	-0.018760266
41	0xbd466e8c	-0.04844527
42	0xbd432957	-0.047646847
43	0x3c86b26c	0.0164425
44	0x3d9e5244	0.07730535
45	0xbd87fa43	-0.066395305
46	0xbd8aad26	-0.06771307
47	0xbdc253ad	-0.09488616
48	0xbb9a4168	-0.004707504
49	0x3c3f0315	0.01165845
50	0x3d002a06	0.031290077
51	0xbc4550a5	-0.012043153
52	0x3b231e6e	0.0024889964
53	0xbcbd0a11	-0.02307609
54	0x3d986890	0.07441819
55	0x3d89d4a5	0.06730012
56	0xbc8d9f6e	-0.017287936
57	0xbd952a97	-0.07283514
58	0xbc826ad8	-0.015920088
59	0x3bfe05bb	0.007752148
60	0xbd0c9773	-0.03432412
61	0xbd191fc0	-0.037383795
62	0x3d41be76	0.04730078
63	0x3d9373ea	0.07199843
64	0x3dd04230	0.10168874
65	0x3da9b1f8	0.08285898
66	0xbdb81e71	-0.08990181
67	0xbdbf3918	-0.09337062
68	0xbdd334f0	-0.103128314
69	0x3c528790	0.012849703
70	0x3d200fa2	0.03907741
71	0xb9332405	-0.00017084189
72	0xbd518e35	-0.05116101
73	0xbd49bc74	-0.04925199
74	0x3aad4e99	0.0013222276
75	0x3d402a70	0.04691547
76	0x3d5eb5be	0.05437254
77	0x3c997770	0.01873371
78	0x3b1b88a9	0.002373258
79	0x3c94678c	0.018115781
80	0xbb6ca67d	-0.0036109977
81	0x3c0e03ea	0.008667925
82	0x3d264047	0.040588643
83	0x3d7175c2	0.058950193
84	0xbb9719a7	-0.0046112123
85	0xbc8ae04f	-0.016952662
86	0x3b322373	0.0027181774
87	0x3c731621	0.014836819
88	0x3c87c2dd	0.01657241
89	0x3d47645e	0.048679702
90	0x3d82a627	0.06379347
91	0xbc1ce940	-0.0095770955
92	0x3da4883b	0.080337964
93	0xbd8c23ef	-0.06842791
94	0x3cb6ad7a	0.022299517
95	0x3cd0cc34	0.025487997
96	0x3d233b9c	0.03985177
97	0xbc8d185c	-0.01722353
98	0x3dbba357	0.09162014
99	0x3c0cc0de	0.008590905
100	0x3c552351	0.013008908
101	0x3b59c6ef	0.0033230146
102	0xbd52b517	-0.051442232
103	0x3cf134d2	0.029444132
104	0xbd708d10	-0.058728278
105	0x3d3b2807	0.04569247
106	0x3d2c80aa	0.04211489
107	0x3cd1b436	0.025598627
108	0xbbb4ac47	-0.005513701
109	0x3ce7f879	0.028316723
110	0x3d4d2ea0	0.050093293
111	0xbd2edb70	-0.04268974
112	0xbbe15e8d	-0.0068777264
113	0x3d1f5a4f	0.038904484
114	0xba149c5a	-0.000566905
115	0x3cc94b00	0.024571896
116	0xbcf26b5c	-0.029592209
117	0xbcac0475	-0.020998219
118	0xbcd9b5bc	-0.026575916
119	0x3bed89ee	0.0072491085
120	0xbdb1b0a3	-0.08676269
121	0xbdb564df	-0.0885713
122	0xbda924af	-0.0825895
123	0x3d070d73	0.03297181
124	0x3ce0f621	0.027461113
125	0xba43beae	-0.0007467073
126	0xbcd37414	-0.025812186
127	0x3d1d5a81	0.03841639
128	0x3d17eb0e	0.0370894
129	0xbc604aa1	-0.013689668
130	0x3d4cd9ae	0.050012283
131	0x3d4be890	0.049782336
132	0x3c81dd98	0.015852734
133	0xbd062bcf	-0.032756623
134	0xbc6874ed	-0.0141880335
135	0x3d82f263	0.06393888
136	0xbc0a287b	-0.008432503
137	0x3d6954e5	0.056965727
138	0xbdd64b59	-0.1046359
139	0xbbeac128	-0.0071641393
140	0xbdb8582d	-0.09001193
141	0x3d6d933a	0.058001734
142	0x3d9c2e30	0.07625997
143	0xbbaf6cd8	-0.0053535514
144	0x3d50dbf5	0.050991017
145	0x3ced3c64	0.02895946
146	0x3d7837c2	0.06060005
147	0xbccb7178	-0.02483438
148	0xbda1f132	-0.079073325
149	0xbdab4edb	-0.0836465
150	0x3caf83e7	0.0214252
151	0x3ca967cc	0.020679377
152	0x3ade57e1	0.0016963446
153	0xbb9be264	-0.0047572125
154	0x3c002b73	0.007822859
155	0x3d261b37	0.040553298
156	0xbd389e7c	-0.045073017
157	0xbd5392ac	-0.05165355
158	0x3cf14b16	0.02945475
159	0x3c8ce578	0.017199263
160	0xbd09383f	-0.033500906
161	0xbbab8ccb	-0.0052352897
162	0x3cc50dcf	0.024054436
163	0x3c9a6bc8	0.018850222
164	0x3d73456b	0.059392374
165	0xbd20bf05	-0.03924467
166	0xbd915771	-0.07096756
167	0xbd86866c	-0.06568608
168	0x3d530a94	0.05152376
169	0x3d75329e	0.059862725
170	0xbc2a7b5e	-0.01040539
171	0x3dc297c3	0.095016025
172	0x3d7a15c5	0.061055917
173	0x3cb89bf6	0.022535305
174	0xbd85bc31	-0.06530035
175	0x399afc47	0.0002956113
176	0xbd4b2bba	-0.049602248
177	0xbdbf0367	-0.09326821
178	0xbd467d7a	-0.048459508
179	0x3b116f88	0.0022191722
180	0xbcad30d4	-0.021141447
181	0xbba6c5b9	-0.0050894883
182	0xbc5d5f20	-0.013511449
183	0xbba67241	-0.005079538
184	0xbdc69e4c	-0.096981615
185	0xbda8e5af	-0.08246934
186	0xbd393f35	-0.045226295
187	0x3d177d0e	0.036984496
188	0xbcceb5d4	-0.025233187
189	0x3d30179d	0.04299127
190	0x3c8dfebf	0.017333386
191	0xbb91cccb	-0.004449462
192	0xbc8a25c0	-0.016863704
193	0xbdc0c15c	-0.094118804
194	0xbdbd495d	-0.092425086
195	0xbd26b973	-0.040704202
196	0xbc803d67	-0.015654279
197	0xbc4bb852	-0.012434082
198	0x3cf2759e	0.0295971
199	0x3cbb502d	0.02286538
200	0x3da5e3ea	0.08100112
201	0xbd0f3420	-0.03496182
202	0xbcd5968a	-0.02607276
203	0xbd294d87	-0.0413337
204	0xbd0a21a5	-0.033723492
205	0xbd4e0b00	-0.05030346
206	0xbcc3a818	-0.023883864
207	0x3cf8f8ef	0.030392138
208	0x3d222ae1	0.039591674
209	0xbd341a79	-0.04397056
210	0x3b2c561f	0.002629645
211	0xbd6dcecb	-0.05805854
212	0xbdb8f97a	-0.09031959
213	0x3cabfac2	0.020993594
214	0x3c9ac247	0.018891467
215	0xbd2929be	-0.041299574
216	0x3cc4a090	0.024002343
217	0x3d72390a	0.059136428
218	0x3d1a152f	0.03761786
219	0xbd648b8a	-0.055797137
220	0xbdddc59a	-0.10828705
221	0xbc8ec753	-0.01742903
222	0xbd9db812	-0.07701124
223	0x3c85d02b	0.016334614
224	0xbaf4baf9	-0.0018671445
225	0xbd025639	-0.03182051
226	0x3d1c0e89	0.0380998
227	0xbd038e3b	-0.032118063
228	0xbd461c95	-0.0483671
229	0x3d380a85	0.044931907
230	0x3c2d3693	0.010572094
231	0xbc959868	-0.01826115
232	0x3d2ab169	0.041673098
233	0xbd8b963a	-0.06815763
234	0x3c88d859	0.016704725
235	0x3c0c6628	0.008569278
236	0xbd341171	-0.043961946
237	0xbcf7240e	-0.03016856
238	0x3c87c6a2	0.016574208
239	0x3d20910a	0.03920082
240	0xbd58b597	-0.052907553
241	0xbcc2f4b7	-0.02379833
242	0xbd24e7ca	-0.040260114
243	0x3a556e8c	0.0008141778
244	0x3d6ce43f	0.05783486
245	0xbc9a34c7	-0.018823994
246	0xbd91664f	-0.07099592
247	0xbcce82d4	-0.025208868
248	0xbcb38ab1	-0.02191672
249	0xbc9eb173	-0.019371724
250	0x3d7af228	0.061266094
251	0x3c29f6da	0.010373795
252	0x3b7b3ab7	0.0038334557
253	0x3d6e12d0	0.05812341
254	0x3d22b30c	0.039721534
255	0xbce488d8	-0.027897283

conv3.0.bias f4 [64]
0	0x3bb74bfd	0.0055937753
1	0x3d70eb3f	0.0588181
2	0x3bdf7aa0	0.006820038
3	0x3d3dba36	0.046320163
4	0x3b2c3df1	0.0026282037
5	0x3d1af7f2	0.037834115
6	0x3c8ca8f6	0.01717041
7	0x3d48ca0a	0.049020804
8	0xbd10e024	-0.035370007
9	0xbc945de5	-0.018111179
10	0xbc822177	-0.015885098
11	0xbc58ced8	-0.013232909
12	0x3dc8a9c8	0.09798008
13	0xbced3673	-0.028956627
14	0x3cf38bd3	0.02972976
15	0xbd504170	-0.050843656
16	0xbc90f284	-0.017693765
17	0xbd41142d	-0.04713838
18	0x3cab9ebe	0.020949718
19	0x3c615b9c	0.0137547515
20	0x3d219ba2	0.039455064
21	0xbc2c5131	-0.010517404
22	0x3ca25743	0.019817
23	0x3d1eeb4b	0.03879861
24	0x3d315a31	0.043298904
25	0x3d058e3c	0.03260635
26	0xbd46c047	-0.048523214
27	0x3d3c4aa3	0.045969617
28	0x3d4bae8a	0.049727
29	0xbc560147	-0.013061828
30	0x3c7eb403	0.015545848
31	0xbc86a6c3	-0.01643694
32	0x3db2bcd1	0.0872742
33	0x3d73a593	0.059484076
34	0x3db62e5b	0.0889556
35	0x3c043fc9	0.008071848
36	0x3cef2157	0.029190702
37	0x3c03984e	0.008031918
38	0xbb5ad0ab	-0.0033388536
39	0xbc76cff2	-0.015064226
40	0x3d000b1b	0.03126059
41	0x3d1f404e	0.038879685
42	0xbc700e23	-0.014651808
43	0x3d7fb9ce	0.062433057
44	0xbb0e225d	-0.0021687963
45	0x3c470894	0.012148041
46	0xbc33953e	-0.010960875
47	0x3c183dca	0.009292075
48	0x3d7145ce	0.05890446
49	0x3caf956b	0.021433553
50	0xbbe78832	-0.0070657963
51	0xbbbda4e8	-0.0057874806
52	0xbd3a0d92	-0.045423098
53	0xbbbcd7eb	-0.005763044
54	0x3d236e23	0.039899956
55	0x3c173eb6	0.00923126
56	0x3c74b572	0.014935838
57	0xbda18e21	-0.07888437
58	0xbb391732	-0.0028242585
59	0x3da50ed6	0.0805947
60	0xbd12ea5e	-0.03586804
61	0x3ce6d41b	0.028177312
62	0xba27e2dc	-0.0006404349
63	0x3c18a314	0.009316225

conv4.0.weight f4 [128, 64, 3, 3]
0	0xbca702ff	-0.02038717
1	0x3b86a393	0.004108855
2	0xbce5ca47	-0.028050555
3	0x3d5006ad	0.050787617
4	0xbd0af93b	-0.03392909
5	0x3d0279a1	0.031854276
6	0xbbde2640	-0.006779462
7	0xbc8c7e27	-0.017149998
8	0xbc6fcd27	-0.0146363145
9	0xbca33d79	-0.019926773
10	0xbd1bc5ff	-0.03803062
11	0xbc672e38	-0.0141101405
12	0xbd9d1e22	-0.07671763
13	0xbd57c93f	-0.052682158
14	0xbb10be0d	-0.0022085935
15	0x3cc1969b	0.023631385
16	0xbcd9a902	-0.026569847
17	0x3cea7191	0.028618606
18	0xbd2d0ca7	-0.042248394
19	0xbd0c80f2	-0.03430266
20	0x3cb431ab	0.02199634
21	0x3d16542d	0.03670137
22	0x3ce758cc	0.028240584
23	0x3d79ad85	0.060956497
24	0xbd808b52	-0.06276573
25	0xbcbf897d	-0.02338099
26	0x3c3fd848	0.01170928
27	0xbc122613	-0.00892021
28	0x3cf6baa9	0.030118303
29	0x3c9467d9	0.018115925
30	0x3b948574	0.0045325104
31	0x3cba0329	0.022706585
32	0x3a4acb5f	0.0007735993
33	0x3cd86878	0.026417002
34	0xbd2de76e	-0.042457037
35	0x3cb68099	0.022278117
36	0xbbba6ff7	-0.005689617
37	0x3d3b409a	0.045715906
38	0xbb9df6b2	-0.004820668
39	0xbd50c29e	-0.05096685
40	0xbd620167	-0.05517712
41	0xbc9e63f5	-0.019334773
42	0xbc27a95f	-0.010233252
43	0x3d26622d	0.04062097
44	0xbd0d6454	-0.03451951
45	0x3d366c20	0.04453671
46	0x3cd33880	0.025783777
47	0xbcc8b3f8	-0.024499878
48	0xbd6b6518	-0.057469457
49	0x3b4e4092	0.0031471592
50	0xbce44328	-0.027864054
51	0x3cf541b1	0.02993855
52	0x3b5d286f	0.0033746024
53	0xbcac8c46	-0.021062981
54	0xbca95900	-0.020672321
55	0x3c7733b7	0.015088013
56	0x3d21c00c	0.03948979
57	0xbd4d326c	-0.050096914
58	0xbd287fcf	-0.041137513
59	0xbca92ec8	-0.02065219
60	0xbb740c56	-0.0037238798
61	0xba3cc506	-0.00072009896
62	0x3c6efbe7	0.014586425
63	0x3d38183d	0.04494499
64	0x3d431c64	0.047634497
65	0xbc0f2e52	-0.008739071
66	0xbd5250a9	-0.051346455
67	0xbc372870	-0.011179075
68	0xbd3b3f66	-0.04571476
69	0xbceb312a	-0.028709967
70	0xbc8c9d24	-0.017164774
71	0x3ce06dba	0.027396072
72	0x3d204a35	0.03913327
73	0x3d3a5d88	0.045499355
74	0x3d0b8d3c	0.03407024
75	0x3cc962f9	0.024583327
76	0x3c9b2979	0.018940674
77	0xbbab7da1	-0.005233482
78	0x3ce79710	0.028270274
79	0xbcb34bff	-0.021886824
80	0xbcea856a	-0.02862807
81	0x3cec65d5	0.028857151
82	0xbd345095	-0.04402216
83	0xbcd97fbd	-0.026550168
84	0xbbbe10f9	-0.005800363
85	0xbcaff5db	-0.021479538
86	0x3ba08691	0.004898854
87	0xbd6e9723	-0.058249604
88	0xbd775397	-0.06038245
89	0xbd06b016	-0.032882772
90	0xbb9cf2bb	-0.004789678
91	0x3cf13323	0.02944333
92	0x3b68022e	0.003540169
93	0xbc938197	-0.01800613
94	0xbd09d46d	-0.03364985
95	0xbc55b5ed	-0.013043863
96	0xbd2b703a	-0.041855074
97	0xbb526891	-0.0032105783
98	0xbd637fc3	-0.055541765
99	0xbd23b039	-0.03996298
100	0x3c827bc2	0.015928153
101	0x3cf6d7ea	0.030132253
102	0x3b8b9c03	0.0042605414
103	0x3c218190	0.00985755
104	0x3d56827b	0.05237053
105	0xbc95eacc	-0.018300436
106	0xbcefd88a	-0.029278059
107	0xbd74c660	-0.059759498
108	0xbcc35134	-0.023842432
109	0x3c40aac3	0.011759463
110	0x3cd99ce3	0.026564067
111	0xbc4c1806	-0.0124568995
112	0xbc603543	-0.013684574
113	0xbcd77add	-0.026303703
114	0xbbafadd1	-0.0053612967
115	0x3bde2316	0.006779085
116	0xbd043538	-0.032277316
117	0xbadeb882	-0.0016992243
118	0xbcd8032d	-0.026368702
119	0x3cbb8bd3	0.022893822
120	0xbd360708	-0.0444403
121	0x3c7c9975	0.015417446
122	0xbd60fd1d	-0.054928888
123	0x3c8ab4fb	0.016932001
124	0x3c87dcdb	0.016584804
125	0x3d0ce4b4	0.034397796
126	0x3d16ef64	0.036849394
127	0xbc926c9d	-0.017874056
128	0xbbe5cfe4	-0.007013308
129	0xbaaf8fb3	-0.0013394266
130	0xbd11242a	-0.03543488
131	0xbba601e4	-0.0050661433
132	0xbccb1fce	-0.02479544
133	0xbc15dede	-0.009147374
134	0x3c3ca41e	0.011513738
135	0xbc176f2a	-0.009242812
136	0xbca11738	-0.019664392
137	0xbc9bbb5d	-0.01901024
138	0xbcf7b88c	-0.030239366
139	0xbd5ffa23	-0.05468191
140	0xbb079c9c	-0.0020692712
141	0x3cec886e	0.028873648
142	0xbacdbc79	-0.0015696428
143	0x3d2083bb	0.039188128
144	0x3c3c0410	0.011475578
145	0xbc8eb75e	-0.01742142
146	0x3c0d0dfd	0.008609292
147	0x3d000402	0.031253822
148	0x3ad4bf6d	0.0016231366
149	0x3d062e21	0.032758836
150	0x3cf15934	0.02946148
151	0x3b3610f9	0.0027781113
152	0xbd0af41d	-0.03392421
153	0xbcc943ae	-0.024568405
154	0xbd4d9a51	-0.050195996
155	0xbd0eaf0a	-0.0348349
156	0xbc0575ab	-0.00814573
157	0xbc4e2ceb	-0.0125839515
158	0xbc153a19	-0.00910809
159	0xbcb60dd0	-0.022223383
160	0x3d1d1d5a	0.03835807
161	0xbd0e1a47	-0.03469303
162	0xbc0e126f	-0.008671387
163	0x3c0e1ab4	0.008673359
164	0xbc9cda08	-0.019146934
165	0xbc93408b	-0.017975112
166	0x3c4a0795	0.012330909
167	0xbc94c77d	-0.01816153
168	0x3c97693f	0.018482802
169	0x3c5c6358	0.01345142
170	0x3c857f4b	0.01629605
171	0x3d5fc1b1	0.054628078
172	0xbb4255ce	-0.0029653194
173	0x3d075612	0.033041067
174	0xbbbeb04e	-0.005819357
175	0xbd29e5a8	-0.041478783
176	0xbd5379f9	-0.051629994
177	0xbc9d4ed8	-0.019202635
178	0xbbdb2528	-0.006687779
179	0xbd04e930	-0.032448947
180	0xbcb3f563	-0.021967595
181	0xbcedc20c	-0.029023193
182	0xbcb017e1	-0.021495761
183	0xbd82c277	-0.063847475
184	0xbdc3c774	-0.09559527
185	0xbd912d25	-0.07088689
186	0x3ca914d1	0.020639809
187	0x3bf6d865	0.0075331205
188	0x3c2ae3b9	0.01043027
189	0x3d1a8de9	0.037732992
190	0xbb8398e8	-0.0040160306
191	0x3d2262ff	0.03964519
192	0x3c01f63b	0.007932241
193	0xbbeec045	-0.007286104
194	0x3c953e2e	0.018218126
195	0x3c9350b3	0.017982816
196	0xbd19d130	-0.037553012
197	0xbd3f8c7f	-0.046764847
198	0xbd8593bc	-0.06522319
199	0xbd193dce	-0.037412457
200	0xbd84bdf2	-0.06481542
201	0xbcc6b806	-0.024257671
202	0x3b6c981d	0.0036101409
203	0xbc955b14	-0.018231906
204	0xbcc53a1a	-0.024075557
205	0x3cbb4c4b	0.022863528
206	0xbd32b33a	-0.043627955
207	0x3d351bb1	0.04421586
208	0x3d39818b	0.045289557
209	0xbca6315e	-0.020287212
210	0xbd4c1197	-0.049821462
211	0xbda69e46	-0.08135657
212	0xbdb576a2	-0.08860518
213	0xbac1d5d8	-0.0014788462
214	0x389aa907	7.374776e-05
215	0x3c8bb407	0.017053617
216	0xbd083373	-0.03325219
217	0xbce13b8e	-0.027494218
218	0x3d0bf8f1	0.034172956
219	0xbc28629c	-0.010277417
220	0x3c8c57a4	0.017131634
221	0x37f84a6f	2.9598565e-05
222	0xbd18d577	-0.03731295
223	0xbd3ea22e	-0.046541385
224	0xbc3aedbf	-0.011409222
225	0x3bff7cf3	0.0077968775
226	0xbd897617	-0.06711977
227	0x3b4e4fe2	0.003148072
228	0x3cbcae5a	0.023032356
229	0x39b1029e	0.0003376202
230	0xbd15ca9e	-0.036570184
231	0x3d501fb0	0.05081147
232	0x3d0b08e3	0.033944022
233	0xbd073a5f	-0.03301465
234	0xba3a4641	-0.00071058056
235	0x3a47082d	0.0007592466
236	0xbc3e7b62	-0.011626096
237	0xbd892847	-0.066971354
238	0xbd31d05c	-0.043411598
239	0xbca03e92	-0.019561086
240	0xbcbbc36a	-0.02292033
241	0xbc82d001	-0.015968325
242	0xbc15477f	-0.009111284
243	0xbbd0cab2	-0.0063718194
244	0x3d34b7d9	0.044120643
245	0x3aa0e3a3	0.0012274872
246	0xbda77a06	-0.08177571
247	0xbd0e20eb	-0.03469936
248	0xbcfe5167	-0.031044675
249	0x3c899508	0.016794696
250	0xbd1b3a5f	-0.037897464
251	0xbcb2e8d5	-0.021839539
252	0xbc3316a0	-0.010930687
253	0xbc4c8669	-0.012483218
254	0x3cf0e2e6	0.029405069
255	0xbda1dfa4	-0.07903984

conv4.0.bias f4 [128]
0	0xbd3bf584	-0.04588844
1	0x3beda794	0.007252643
2	0x3ceda131	0.029007526
3	0x3d1e1956	0.03859838
4	0x3d0d80dd	0.03454672
5	0xbca9bf10	-0.020720989
6	0xbd1b60ca	-0.037934102
7	0xbc0ef9e8	-0.0087265745
8	0x3c2aa59c	0.010415461
9	0x3c3686ff	0.011140584
10	0xbd2e5388	-0.04256013
11	0xbd1636ab	-0.03667323
12	0xbba6ca09	-0.0050900024
13	0x3d004470	0.031315267
14	0x3c80e80a	0.015735645
15	0x3c309bb4	0.01077931
16	0x3c533c88	0.01289285
17	0x3d0fd83b	0.035118323
18	0xbcc0aeed	-0.023520911
19	0xbd1bfb18	-0.03808126
20	0xbcc92a40	-0.02455628
21	0x3c5fc63c	0.013658103
22	0xbd418dfe	-0.047254555
23	0xbd1ee60e	-0.038793616
24	0xbb1e6bf5	-0.0024173234
25	0xbd1517c1	-0.036399607
26	0xbd84940c	-0.0647355
27	0xbb67a4e3	-0.0035346083
28	0xbd2e2452	-0.042515106
29	0xbd3d6d72	-0.046246953
30	0x3c3944e2	0.011307927
31	0x3ce6a284	0.028153665
32	0x3d3f13fd	0.04664992
33	0x3cf6a67d	0.030108685
34	0x3d5e86d5	0.054327805
35	0x3d304005	0.043029804
36	0x3cb65d81	0.022261383
37	0x3ce59949	0.028027194
38	0x3c093c87	0.008376247
39	0xbc61470a	-0.013749847
40	0x3d085e5d	0.033293117
41	0xba8a1ebd	-0.0010537725
42	0x3b8b19fc	0.004245041
43	0xbd237cc3	-0.039913904
44	0xbd112870	-0.035438955
45	0xbd65affe	-0.056076042
46	0x3bae782c	0.005324384
47	0x3d3fb46a	0.046802916
48	0x3c64f863	0.013975236
49	0x3baa8566	0.0052038906
50	0x3d4758ab	0.048668545
51	0xbd707cb3	-0.058712672
52	0x3c1d64f1	0.009606586
53	0xbb024544	-0.0019877711
54	0x3d2aa02f	0.04165667
55	0xbbb20658	-0.005432885
56	0xbd0255eb	-0.03182022
57	0x3bba8348	0.0056919195
58	0x3bfe0b6a	0.0077528255
59	0x3d25c4b5	0.040470798
60	0x3c3a5531	0.01137285
61	0x3c27c0d3	0.010238844
62	0xbd27bbc5	-0.040950555
63	0xbcb93ad1	-0.022611054
64	0x3c667897	0.014066837
65	0xbae1cd51	-0.0017227327
66	0x3d48e6f7	0.04904839
67	0x3bd76227	0.00657298
68	0xbd112021	-0.03543103
69	0xbc84b755	-0.0162007
70	0x3ccfd490	0.025369912
71	0xbd36cf03	-0.044631016
72	0x3cb45290	0.022012025
73	0x3b05299b	0.0020318988
74	0x3bc726a3	0.006077604
75	0xbc361b3b	-0.011114891
76	0x3c95c8de	0.018284258
77	0xbce024c8	-0.027361289
78	0xbd876b70	-0.06612289
79	0xbce47755	-0.027888933
80	0x3b2d0b49	0.0026404432
81	0xbca2228c	-0.019791864
82	0x3bb45379	0.005503115
83	0xbc53f496	-0.012936732
84	0x3c69611a	0.014244342
85	0xbd274625	-0.04083838
86	0x3bdd7030	0.0067577586
87	0x3cc2ee77	0.02379535
88	0xbd3b5664	-0.045736685
89	0xbc95a79b	-0.018268397
90	0xbd48f4b1	-0.04906148
91	0xbc9f8e24	-0.019476958
92	0x3cdd9f6a	0.027053554
93	0x3d110e01	0.035413746
94	0xbc367778	-0.011136882
95	0x3d13e0cb	0.03610305
96	0xbc92032e	-0.017823782
97	0x3c5ade5f	0.013358681
98	0x3c9c3950	0.019070297
99	0xbc89db4c	-0.016828202
100	0xbc5ee57f	-0.013604521
101	0xbd373a27	-0.044733193
102	0x3cbd81dd	0.023133213
103	0x3cf46454	0.029832996
104	0x3ca2591f	0.019817887
105	0xbd25fe86	-0.040525936
106	0x3a8077ef	0.0009801368
107	0x3cf34cfa	0.029699791
108	0x3d351f47	0.04421928
109	0x3c7c65f1	0.015405164
110	0x3cbc89bd	0.023014897
111	0x3bb8451b	0.0056234724
112	0x3c4a3354	0.012341339
113	0x3c94abd8	0.018148348
114	0x3d0f924d	0.035051633
115	0x3cab92e2	0.020944063
116	0xbc8d44ba	-0.017244685
117	0x3cae07c2	0.021243934
118	0x3c38c110	0.011276498
119	0x3c57bff0	0.01316832
120	0x3c95bd47	0.018278731
121	0x3c857c76	0.0162947
122	0x3c762680	0.015023828
123	0xbce9de4d	-0.028548384
124	0xbdac7fce	-0.08422814
125	0xbd279bc8	-0.04092005
126	0x3d39e759	0.045386646
127	0x3c295b91	0.010336773

linear.weight f4 [2, 2560]
0	0x3c3e87e2	0.011629077
1	0xb89f6852	-7.601142e-05
2	0x3c45eb15	0.012079974
3	0xbc9d179b	-0.019176295
4	0x39170ce8	0.0001440529
5	0x3d1a5adb	0.037684303
6	0xbc29a017	-0.01035311
7	0x3ceb00a8	0.028686836
8	0xbc72ed8f	-0.014827146
9	0xbc913897	-0.01772718
10	0x3af87989	0.0018957119
11	0xbac884cd	-0.0015298367
12	0x3cca2a52	0.024678383
13	0xbb84d0e5	-0.0040532225
14	0x3c5e26e0	0.013559073
15	0x3ca9d2ef	0.020730464
16	0x3cc805db	0.024416855
17	0x3c1f94a0	0.009740025
18	0xbbf0f4b1	-0.0073533882
19	0xbb7f3dab	-0.003894667
20	0x3c3dd703	0.011586907
21	0xbc25651b	-0.010094906
22	0xbced9bd2	-0.029004965
23	0xbc87a8a2	-0.016559903
24	0xbc9df63d	-0.019282455
25	0xbc950db7	-0.018195016
26	0xbd2f5092	-0.042801447
27	0xbd2e8d0b	-0.042614978
28	0x3d13b69e	0.03606283
29	0x3d0fa7eb	0.03507225
30	0x3d1a7ae3	0.03771485
31	0x3d4cf32b	0.05003659
32	0x3cb0be54	0.02157513
33	0x3ca2fe53	0.019896662
34	0x3cdf3442	0.027246598
35	0x3c9b237c	0.018937819
36	0x3d0c4005	0.03424074
37	0x3d00f2e9	0.031481657
38	0x3c178597	0.009248159
39	0x3d24121c	0.040056333
40	0xbd1cc351	-0.038272206
41	0xbcc6e020	-0.024276793
42	0xbd0846ac	-0.033270523
43	0xbcf09368	-0.029367164
44	0x3c376ccf	0.011195376
45	0x3d12b0a3	0.035812985
46	0x3d0f5d27	0.035000946
47	0x3d19736e	0.037463598
48	0x3b95436c	0.0045551565
49	0x3c948591	0.018130096
50	0x3c47ddf2	0.012198912
51	0x3cd263d8	0.025682375
52	0xbd0095c7	-0.03139284
53	0x3c03df02	0.008048775
54	0xbcac42fe	-0.021028038
55	0xbc7ee0f9	-0.015556567
56	0xbc8a3888	-0.01687266
57	0xbcfcf479	-0.030878292
58	0xbce81016	-0.028327983
59	0xbc28f8bf	-0.010313212
60	0xbcc12338	-0.023576364
61	0xbd057732	-0.032584377
62	0xbc7e9cf4	-0.01554035
63	0xbd152a9b	-0.036417585
64	0x3ca7ef65	0.020499894
65	0x3d442a87	0.04789212
66	0x3d364175	0.04449602
67	0x3d4286d6	0.04749187
68	0x3cdaecff	0.026724337
69	0x3c8b04b0	0.016970009
70	0x3cf06e15	0.029349366
71	0x3d40fcd9	0.047116134
72	0x3bde8a58	0.006791394
73	0xbced9647	-0.029002322
74	0xbb22c9bc	-0.0024839481
75	0xbcb42fdf	-0.021995483
76	0xbd25bde6	-0.040464304
77	0xbc272cbe	-0.010203538
78	0xbd372e48	-0.04472187
79	0xbc886db3	-0.016653871
80	0x3c3598ea	0.011083821
81	0x3c7e6613	0.015527266
82	0xbb0c02e4	-0.0021364028
83	0x3c2236bb	0.009900744
84	0x3d2bdd97	0.04195937
85	0x3d051e46	0.032499574
86	0x3cf28140	0.029602647
87	0x3c61b5cd	0.013776255
88	0xbd8ce487	-0.06879526
89	0xbd8c0bd0	-0.068381906
90	0xbd82dd1a	-0.06389828
91	0xbd6eed36	-0.05833169
92	0x3c649655	0.013951858
93	0x3c8bf6cd	0.017085457
94	0x38e1ef82	0.00010773448
95	0x3ce5bdd5	0.02804462
96	0x3ac2c935	0.001486099
97	0x3a7548ea	0.00093568733
98	0x3c8c8698	0.017154023
99	0x3c921888	0.017833963
100	0xb9c727d9	-0.00037985927
101	0xbb526e47	-0.0032109187
102	0x3bdb28fd	0.006688236
103	0x3cc26245	0.0237285
104	0xbc6eb872	-0.014570342
105	0xbd2676f9	-0.040640805
106	0xbd273c7b	-0.040829163
107	0xbd314d70	-0.04328674
108	0x3bf85ce0	0.007579431
109	0x3d1fcdca	0.039014615
110	0x3d6219fc	0.055200562
111	0x3d27ee09	0.040998492
112	0x3cdc124c	0.026864193
113	0xbc8b07b8	-0.016971454
114	0x3c7fe228	0.015617885
115	0x3d1749c8	0.036935598
116	0x3d319e8f	0.043364104
117	0x3d2303ed	0.039798666
118	0x3d4aba32	0.049493976
119	0x3d48e7f5	0.049049336
120	0x3cf4bcd0	0.029875189
121	0xbb84fde8	-0.0040585883
122	0x3c0495e2	0.0080923755
123	0xb949fe4c	-0.00019263587
124	0xbb576b89	-0.0032870492
125	0xbcc20a12	-0.023686443
126	0xbc37a4d4	-0.011208732
127	0xbbea90f2	-0.007158392
128	0x3d0147c4	0.03156258
129	0x3c1a98a4	0.009435806
130	0x3c3a9c32	0.011389779
131	0x3c63238b	0.013863455
132	0x3d2ff4df	0.042958137
133	0x3d7214c9	0.059101854
134	0x3d185f7e	0.037200443
135	0x3d211cc3	0.03933407
136	0x3d3c0431	0.045902435
137	0x3d6c77dd	0.057731498
138	0x3d38b505	0.04509451
139	0x3d62bf4c	0.055358216
140	0x3b85b405	0.004080298
141	0x39528b48	0.00020079047
142	0xbb61c49e	-0.0034449468
143	0x3c536cc7	0.0129043525
144	0xbb91be9b	-0.004447771
145	0xbca92fe6	-0.020652723
146	0xbd0dc4d7	-0.03461155
147	0xbd39f7e1	-0.04540241
148	0x39942d30	0.00028262427
149	0x3d2d2b54	0.04227765
150	0x3d4856ed	0.048911024
151	0x3c90fdf3	0.017699217
152	0xbc27fac8	-0.010252662
153	0x3b38a46d	0.0028174177
154	0x3ccc8953	0.024967825
155	0x3d22b2fa	0.039721467
156	0x3c28bc0b	0.010298739
157	0x3d3e4efd	0.046462048
158	0x3c972d19	0.018454121
159	0x3cb4212b	0.021988472
160	0xbc9fa0d8	-0.019485876
161	0x3ba22bf6	0.004949088
162	0xbca7d3fe	-0.020486828
163	0x3c3d7504	0.011563543
164	0x3c1fc2e4	0.009751055
165	0xbcfff895	-0.031246463
166	0xbd62e904	-0.055398002
167	0xbd3d6033	-0.04623432
168	0x3c985ce2	0.018598977
169	0x3d4f2e7d	0.050581444
170	0x3d6a24c9	0.057163987
171	0x3d1dfb41	0.038569693
172	0x3c015b60	0.007895321
173	0x3c8ff35e	0.017572101
174	0x3cde1653	0.027110254
175	0x3baf695b	0.0053531355
176	0x3bc2adab	0.005941113
177	0x3bc2079b	0.005921317
178	0x3d1df13f	0.03856015
179	0x3c932fbb	0.017967096
180	0xbd774bfa	-0.06037519
181	0xbb550a6f	-0.003250744
182	0xbce1017a	-0.027466524
183	0xbcd689c0	-0.026188731
184	0x3cacc72e	0.02109107
185	0x3cf64ae8	0.030065015
186	0x3d30a7d6	0.04312881
187	0x3d724678	0.059149235
188	0xbbcf8325	-0.0063327723
189	0xbc17036b	-0.0092171235
190	0x3b74ff25	0.0037383523
191	0x3cd22b5d	0.025655443
192	0xbcfa7c53	-0.03057686
193	0x3bdaaa70	0.0066731498
194	0x3c0dfa07	0.008665568
195	0x3b05eea5	0.0020436433
196	0xbcf8d8e3	-0.030376857
197	0xbc96659c	-0.018358998
198	0xbd7ece52	-0.06220848
199	0xbd2be15e	-0.041962974
200	0x3c0b9efe	0.008521793
201	0xbc7b9620	-0.015355617
202	0xbb50d0b6	-0.0031862683
203	0xb9160081	-0.00014305302
204	0x3ccbda75	0.024884442
205	0x3c032e4e	0.008006645
206	0xbcf54573	-0.029940343
207	0xbc926dd1	-0.01787463
208	0x3b4fd23a	0.0031710998
209	0x3bc318c6	0.005953881
210	0x3ca87659	0.020564245
211	0x3c88028e	0.01660278
212	0x3d0bd7c4	0.034141317
213	0xbbcb454c	-0.006203329
214	0xbb955dc1	-0.0045582955
215	0xbc1808a3	-0.009279403
216	0xba08ac0e	-0.00052136264
217	0x3c5c00d5	0.013427933
218	0x3bfb7bd2	0.0076746726
219	0x3bf05109	0.007333879
220	0x3c4716fc	0.012151476
221	0x3c20e2d1	0.009819702
222	0xbbd19648	-0.0063960887
223	0x3b1f923c	0.0024348637
224	0xbcc4f079	-0.024040448
225	0xbbecd8f5	-0.0072280117
226	0x3c265c88	0.010153897
227	0x3c52465c	0.012834158
228	0x3ac29a20	0.0014846958
229	0x3bf98b58	0.007615488
230	0x3c92611b	0.01786857
231	0xba444a35	-0.00074878643
232	0xbc1999d8	-0.009375058
233	0x3c12da34	0.0089631565
234	0xbc379ec1	-0.0112072835
235	0x3baa6bb6	0.0052008284
236	0x3c173da2	0.009231003
237	0xbc38b271	-0.0112730125
238	0x3b383a18	0.0028110798
239	0xbc0cb632	-0.008588361
240	0x3bf09150	0.0073415413
241	0xbb51bc5e	-0.0032003145
242	0xbc95b99d	-0.018276984
243	0xbcaedd9e	-0.02134591
244	0x3b236a60	0.002493523
245	0xbca40fbd	-0.020027036
246	0x3c1006e5	0.008790706
247	0x3c57a94f	0.013162925
248	0xbbe01603	-0.0068385615
249	0xb9235aa1	-0.00015578653
250	0x3c1ca51b	0.009560849
251	0xbc28bd92	-0.010299103
252	0xbcc0156b	-0.023447713
253	0xbbf947d2	-0.0076074386
254	0x3c1cd8f7	0.009573213
255	0x3c72344f	0.014782979

linear.bias f4 [2]
0	0x3c668d91	0.014071838
1	0xbb618cf6	-0.0034416295
