AmbulanceProject/pth_files/third_92.pth (torch, 412231 bytes, 10 tensors)

conv1.0.weight f4 [16, 1, 3, 3]
000000 08 51 03 3d 6b 7d 0e be 94 d0 92 3d 96 de 2d 3e
       0.0320597 -0.1391503 0.07168689 0.16979441
000010 55 1f 5a 3e 50 36 73 be 83 f5 91 be cf 1e 12 3e
       0.21301015 -0.23751187 -0.28507623 0.14269565
000020 ae b2 a3 3e 5b cd fb bd 3b 15 84 be 39 4e 8d bd
       0.3197226 -0.12295028 -0.25797448 -0.068996854
000030 fc 96 a4 3e ae bb 45 3e 8e 68 bf 3e 0d 3c 70 3e
       0.32146442 0.19309875 0.37384456 0.23460408
000040 46 50 20 be c9 f4 8f bd 18 6b e9 bd 59 48 eb 3d
       -0.15655622 -0.07029111 -0.1139738 0.114884086
000050 95 89 1b be 0d 1e 89 be 1d 20 6e 3e 2b ac 51 be
       -0.15189202 -0.2678074 0.23254438 -0.20475833
000060 fe 51 93 3e 62 0c 87 be b0 c2 0e 3e e4 3e da bd
       0.28773493 -0.26376635 0.13941455 -0.10656527
000070 b2 da 08 3b f7 2d 35 be 04 a5 d4 3e 90 cd 38 be
       0.0020882306 -0.17693315 0.41532147 -0.18047166
000080 59 a6 77 3e 75 fb 0b 3c e9 07 38 be 30 c9 93 3d
       0.2418455 0.008543839 -0.17971767 0.07216108
000090 92 ac 38 be f3 3c 1f 3e f6 8c 9c 3e cd 51 99 3e
       -0.1803458 0.15550594 0.30576295 0.29945222
0000a0 4e d7 a4 be 73 a7 f7 3c 8a 90 53 3e fd cd 81 be
       -0.32195514 0.030231213 0.20660606 -0.2535247
0000b0 1d 09 5e 3e e8 cf c0 3e b3 47 b5 3e ee 32 9e be
       0.21683164 0.3765862 0.35406265 -0.3089823
0000c0 dd bc db 3d 9f 3d 74 3e 93 6b 90 3d d9 ac 31 3e
       0.10729382 0.23851632 0.07051768 0.17351092
0000d0 52 e1 d2 3a fb 45 73 3e d0 f8 87 bd 6a cf a8 bd
       0.0016088879 0.23757164 -0.06639254 -0.08242686
0000e0 73 23 41 3e e0 9e ca bc 37 ad 4e 3e a6 21 88 3c
       0.18861179 -0.02473396 0.20183264 0.016617607
0000f0 77 b5 ea 3d 8e 99 02 be 88 7c 96 be 4a 30 a6 bd
       0.11460393 -0.12753889 -0.29391885 -0.08114679
000100 1e bc 94 3e 43 f9 8b be 23 af 96 3e 4b 17 b3 bd
       0.29049772 -0.2733861 0.29430494 -0.08744677
000110 5c e5 80 be 5b 77 95 bd 36 31 92 3d ce ae 1e be
       -0.25174987 -0.07298156 0.071382925 -0.1549637
000120 d2 37 82 be ba e2 07 be 95 67 1a 3c ae 8c 8f be
       -0.25433213 -0.13270083 0.00942411 -0.28037018
000130 3e 07 c8 3e e4 a4 7d be 4c 92 10 3e d4 fc 5a 3b
       0.39068025 -0.24769932 0.14118308 0.0033414857
000140 92 70 a8 bd 81 98 9c 3d 54 83 91 3e a7 5a 95 3e
       -0.08224596 0.07646275 0.28420508 0.29170725
000150 27 f6 b5 3e 8e 0a a3 3e 03 3a 7d 3e 29 f9 51 3e
       0.35539362 0.3184399 0.24729161 0.20505203
000160 bf 3e 20 3e 0c 20 72 be e9 0c 70 3e e8 5d 19 be
       0.15648936 -0.23645037 0.23442425 -0.14977229
000170 8e 04 c5 3d ba 68 4c be ea 1a a0 be 04 d5 84 bd
       0.09620009 -0.19961825 -0.31270534 -0.06485942
000180 f0 75 a7 be e4 3d 55 be 55 bb 10 be dd 92 06 3e
       -0.32707167 -0.2082439 -0.14133961 0.13141961
000190 ed 26 cf bd 58 aa 56 be 62 04 1e 3c e2 da de 3c
       -0.101148464 -0.20963418 0.0096446 0.02720398
0001a0 de c9 e2 bd 6e 15 b2 3e 7e 81 6c 3c b1 db 45 3e
       -0.11073659 0.34781975 0.01443517 0.19322087
0001b0 d8 ea c1 bd a8 1f f9 bd 81 f4 c5 3e 98 a6 03 3d
       -0.09468621 -0.12164241 0.38663104 0.032141298
0001c0 54 6d d1 bc c4 4c d4 3d e8 cb 7b 3e 6a b5 9f be
       -0.025564827 0.103662044 0.24589503 -0.31193095
0001d0 16 20 9f bc 06 c9 85 bd 21 42 03 be ed fa 12 be
       -0.01942448 -0.06532483 -0.12818195 -0.14353533
0001e0 ce 5a c5 3d 0e 8e d9 3e 20 d8 f6 3d 19 f2 4c bd
       0.0963646 0.42491192 0.12052941 -0.05003557
0001f0 b0 f9 a9 3b cf a8 01 be 65 b7 1c bd d2 c2 4e be
       0.005187236 -0.12662052 -0.038260836 -0.20191506
000200 56 da af be 07 b0 95 3d 33 70 68 be ca 1b ea 3d
       -0.34346265 0.07308965 -0.2269905 0.114310816
000210 47 14 a7 3c c7 45 7e be 7c 40 b3 3a 86 32 6c 3d
       0.020395411 -0.24831305 0.0013675834 0.05766537
000220 08 a1 d3 3e 98 be a9 bd de 71 9d 3c 90 ef fb bd
       0.41333795 -0.08288306 0.019219335 -0.12301552
000230 b3 1d 83 be d8 e2 91 bd cb 9d e7 3c 01 8d 17 3e
       -0.25608596 -0.07123345 0.028273484 0.14799882

conv1.0.bias f4 [16]
000000 d9 14 45 3e f2 bc 40 3e 73 2a 35 bc db df 30 3d
       0.19246234 0.18822077 -0.011057484 0.043182235
000010 bd 92 55 be 83 41 38 3e 8d 1a 70 bd cd 6b 8d be
       -0.20856757 0.1799374 -0.05861907 -0.27621308
000020 30 1d 84 3e 68 2a 8d 3c 23 38 b7 3e 0a 5f be 3b
       0.25803518 0.017232135 0.35785016 0.0058096694
000030 ca 17 c3 3b 9a fe 99 bd 7c a9 3b be 46 b3 62 3d
       0.0059537636 -0.075192645 -0.18326372 0.05534675

conv2.0.weight f4 [32, 16, 3, 3]
000000 7d 7c 8e bc 7d 69 8c bd e7 d0 ba bc 3e e3 43 3d
       -0.017393345 -0.06856058 -0.02280469 0.047824137
000010 73 82 a0 3d 15 b1 99 3d ce 16 46 bd 2c fe 76 bd
       0.07837381 0.07504479 -0.048361592 -0.06030099
000020 6a c7 81 bb 71 6e c1 bd a8 80 18 bd e8 58 07 3d
       -0.0039605396 -0.09444893 -0.03723207 0.033043772
000030 5c b1 07 3e 33 bf 30 3d 66 6a e2 3b 0f 93 2e bc
       0.13251251 0.04315109 0.0069096563 -0.010655179
000040 58 3e 0a be 9a 51 9c bb 10 23 a2 bc 76 fd 1b bd
       -0.13500345 -0.00477047 -0.01979211 -0.038083516
000050 fd a8 16 bd 58 42 c1 3d dd fa 81 3c 02 da d0 bb
       -0.036782254 0.09436482 0.015866691 -0.006373645
000060 92 ec 7c 3d 50 37 9a bd 77 3b ca bc 57 0d 08 bd
       0.06174905 -0.07530081 -0.024686558 -0.033215847
000070 c5 c1 d5 bd 01 b2 8d bc 6c 66 cc 3d 48 46 50 3d
       -0.10437349 -0.017296793 0.09980473 0.050848275
000080 b4 32 19 3e e3 3a bb bc 22 fe 75 bc bb ee 02 be
       0.14960748 -0.022855228 -0.015014203 -0.12786381
000090 21 8a 9a bd eb be 05 3d 41 73 a1 bd f9 a0 a0 3c
       -0.07545877 0.032652777 -0.07883311 0.019608008
0000a0 91 6b 11 bd cf 10 48 3d b1 9f dd bd cd e2 a1 3c
       -0.035502974 0.048844155 -0.10821474 0.019761467
0000b0 dc 83 04 bd 7d b4 1f 3d 48 e4 8a bd 04 6c 93 bd
       -0.032352313 0.038990486 -0.067818224 -0.07198337
0000c0 a0 5f 32 bd 4d c7 a9 3d 0b 29 4e 3d 06 90 10 bd
       -0.043548226 0.08289967 0.05033211 -0.0352936
0000d0 36 f3 b4 3c e7 9a aa 3d 21 c0 50 3d 6d 05 a9 bd
       0.022088628 0.083303265 0.05096448 -0.08252988
0000e0 54 34 d7 3c 85 d3 a3 bc fd 70 6f bc eb fd f7 3c
       0.02627007 -0.019998321 -0.014614341 0.030272445
0000f0 58 18 4f bd da 85 00 3d 62 41 9d 3d 12 45 3c 3d
       -0.050560325 0.03137765 0.076784864 0.045964308
000100 b7 45 4b bd f0 d4 0b bd c8 4e c8 bc ed 29 79 bb
       -0.049627032 -0.03413862 -0.024451628 -0.0038019374
000110 86 89 14 3d af ce 98 3d f5 43 11 3d 64 a0 7f 3d
       0.036263965 0.07461297 0.0354652 0.06240882
000120 6d e1 bc 3d 16 dd fd bb a4 97 54 bd d4 b1 e5 3c
       0.09222684 -0.0077473028 -0.05190243 0.028038897
000130 17 da 54 bb e4 ca a7 3d 3d 40 e4 bd 8d c1 ba 3b
       -0.0032478624 0.08192995 -0.11145065 0.0056993426
000140 14 b9 2d bd ef 23 44 3d 26 87 35 3d e1 d0 66 bd
       -0.042412832 0.04788583 0.04431834 -0.056351546
000150 9e 06 9b 3d 69 62 c4 3c c8 16 0f bd 0d 62 91 3d
       0.075696215 0.023972707 -0.034933835 0.0709878
000160 07 52 f2 bc e7 ca fc 3b 4f 27 13 3c 31 b5 97 3d
       -0.02958013 0.0077146175 0.00898154 0.074076064
000170 18 52 f3 3b af 44 26 bc 74 49 ba bc 53 95 00 be
       0.007425558 -0.010148211 -0.022740103 -0.12556963
000180 bd c4 d3 3d 97 76 65 3d e5 38 46 3d 6e 71 23 3d
       0.10340259 0.0560213 0.048394103 0.039903097
000190 37 bc f1 3c 9e fc 80 bd bd 9c 6c 3d 10 ca 71 3d
       0.029508693 -0.06298183 0.057766665 0.059030592
0001a0 a3 51 8e 3c 1d e3 dc 3c 05 c5 29 bd 70 cb f1 bd
       0.017372912 0.026963765 -0.041447658 -0.11806381
0001b0 69 ef 85 bc 2a 38 a3 bd fc a8 b9 bd a3 6c 27 3c
       -0.016349511 -0.07969697 -0.09065434 0.010218772
0001c0 bf 37 6c 3d fc 3b 87 3d 07 91 67 bd 01 96 41 bd
       0.05767035 0.06603238 -0.056534793 -0.047262195
0001d0 d1 df c3 bb 0b 9a b0 bc 88 e1 29 3c 5b 08 2a bd
       -0.0059776087 -0.021557828 0.010368712 -0.041511875
0001e0 f1 75 b3 3d 8d ef 1d bc fc f5 0c 3e 8b a6 4c bd
       0.0876273 -0.009639633 0.1376571 -0.049963515
0001f0 19 26 0f be af 66 84 bd d5 b0 67 3d 77 03 a5 3b
       -0.13979377 -0.06464898 0.056565125 0.0050358134
000200 38 7b 88 bc d5 dd 47 bb b1 89 86 3d d4 6d 87 bb
       -0.016660318 -0.0030497212 0.06569231 -0.0041329656
000210 a4 da 93 bc 9b 4d 67 bd d9 b3 73 bd 83 65 bd bc
       -0.018048592 -0.056470495 -0.059497688 -0.023119694
000220 07 96 9c bd 53 26 ea bd 41 0a 1a bd bc ff 50 bc
       -0.07645803 -0.11433091 -0.037607435 -0.012756284
000230 d3 dd 63 3d e2 ae e9 3d ad 89 c2 3d 38 80 57 3d
       0.05563147 0.114103094 0.09498916 0.052612513
000240 74 6e c4 bb 0d 7a 42 3d 11 19 aa bc 6d a8 11 bd
       -0.0059946124 0.047479678 -0.020763906 -0.035561014
000250 77 ed 72 bd da 64 a5 bd 6b 86 ae bd 7a 83 82 3c
       -0.059308495 -0.080758765 -0.08521732 0.015931834
000260 d4 6a 05 3d fd 96 36 3c b8 18 53 3d 5d b8 b8 bd
       0.032572582 0.011144397 0.051537246 -0.090195395
000270 47 1e 72 bc c2 71 df bd 96 3c f3 bd f9 5e 80 bd
       -0.0147777265 -0.109103695 -0.1187679 -0.062681146
000280 8c cd b3 3d 53 1b 3d 3d 9d 81 98 3d 62 62 4a bb
       0.08779439 0.046168637 0.07446597 -0.0030881395
000290 d8 90 7b 3d ca e6 67 bc e7 de 3a bd a7 9a bf b9
       0.06141743 -0.0141541455 -0.045622732 -0.00036545584
0002a0 d9 bf 22 bd 23 fe 08 bd 37 c4 2c 3c 22 14 c5 bd
       -0.03973374 -0.03344549 0.010544828 -0.09622981
0002b0 f7 75 ed bc bc 72 36 bd 12 6e 77 3c 7b 9f 69 3a
       -0.028986914 -0.044543013 0.015101926 0.0008912009
0002c0 b8 7d a9 bd d4 2a 09 3d 3a cc d5 3c a8 3a 07 3d
       -0.08275932 0.03348811 0.02609836 0.033014923
0002d0 c5 0c 58 bd 2d 57 78 bd 3f 31 d9 3c 3e b3 c2 bd
       -0.052746553 -0.060630012 0.02651274 -0.09506844
0002e0 73 73 21 3d a4 af 7e 3c 4b 67 c0 3c 6c 6e 6f bd
       0.03941674 0.015544806 0.023486754 -0.058454916
0002f0 c8 df ad bc 89 3d 7a 3d cb 47 20 3d 18 47 03 3c
       -0.021224871 0.06109384 0.039130967 0.008012556
000300 50 ed a9 bd ee 3f 38 bd 8e 6c 5e 3d 4f 07 ef bd
       -0.08297217 -0.044982843 0.054302745 -0.11671316
000310 81 74 73 bd 87 77 16 3d 90 d3 94 bd 42 40 1d bd
       -0.05943728 0.036735084 -0.07266915 -0.03839136
000320 47 df bd 3d 4f b9 e6 bc 49 d0 92 3d b6 e3 6c bb
       0.092711024 -0.028164534 0.071686335 -0.0036146468
000330 b4 df 09 3d a8 ff b1 bd 99 5d 89 bd 6a a3 cc 3c
       0.033660606 -0.08691341 -0.067073055 0.024980266
000340 54 8e 59 3d 58 60 72 3d 36 80 10 bd 65 9e 60 3d
       0.05311425 0.05917391 -0.03527852 0.054838557
000350 1f 3d 63 bd 69 3f 04 3d 21 5c 1f bd 50 92 67 3d
       -0.05547821 0.032287035 -0.03890622 0.05653602
000360 86 46 45 3d f9 78 b6 3d 06 f1 94 bd 6b 52 00 3d
       0.04816296 0.089097925 -0.07272534 0.0313286
000370 61 98 73 3d 67 cf f5 3c 70 91 56 bc 64 3b 81 bc
       0.05947149 0.030006124 -0.013096198 -0.01577539
000380 2a e4 ac 3d a1 8e 05 3e 2e c9 eb 3b 34 a8 58 3d
       0.08441956 0.1304269 0.0071956133 0.052894786
000390 27 47 ab bd 67 7b a3 bd f0 b8 02 3d f8 bd 92 bd
       -0.083631806 -0.079825215 0.03191465 -0.0716514
0003a0 2e 63 cb bc 53 9d 9a bc fa 1c 7e 3c e9 70 ab 3d
       -0.024827566 -0.018873846 0.015509838 0.08371145
0003b0 28 79 68 bd 6d 32 55 3d 01 29 04 3d ad 8f ca bb
       -0.05675617 0.052050043 0.032265667 -0.0061816783
0003c0 a4 6f 45 3d d5 1a 32 bd 13 22 60 bc 9c 65 ae 3d
       0.048202172 -0.04348262 -0.013679999 0.08515474
0003d0 28 6b bc bc 78 d6 06 3c b6 f8 5c bd 04 ef 05 3d
       -0.023000315 0.008229844 -0.053948127 0.032698646
0003e0 2b a0 7b bd 50 3c b5 bd 6e 91 e2 3c ef 75 13 3c
       -0.061432045 -0.08849394 0.027657237 0.0090002855
0003f0 70 da dd bc b2 20 ab 3d bb 03 d9 3d 81 05 a6 bc
       -0.027081698 0.083558455 0.10596415 -0.020266296

conv2.0.bias f4 [32]
000000 33 12 0c 3d b6 0f 21 3d 6f 1b cf 3b 4c 07 06 bd
       0.034197044 0.039321624 0.006320409 -0.032721803
000010 61 c8 ae 3d b4 6b 43 bd 22 90 6c 3d a7 79 85 bc
       0.08534313 -0.047710136 0.057754643 -0.01629336
000020 5c 4b fd bc 3a 37 8a bc 48 33 d0 3d e9 c2 3d 3d
       -0.030919723 -0.016872037 0.10166031 0.04632846
000030 71 25 4f 3d 38 cc 0f bd 92 48 3d 3d 57 57 5b 3d
       0.050572816 -0.035106868 0.046211787 0.05355009
000040 ba 60 8e bd 4b a2 94 bd 47 a0 9d 3d b0 00 b0 bd
       -0.06952043 -0.072575174 0.07696586 -0.08593881
000050 d5 4d e4 bc 4d 41 4a bd 77 53 1d 3d 0f 62 24 3b
       -0.027869144 -0.049378682 0.038409676 0.0025082862
000060 49 e6 a2 bd d3 c6 ec bb 2b 67 c2 3d 60 1b a5 bc
       -0.0795408 -0.00722585 0.09492334 -0.020154655
000070 2e 1d 82 bd 45 00 2c bd d3 8f 97 3c c7 97 1f 3d
       -0.06353222 -0.041992445 0.018501198 0.038963106

conv3.0.weight f4 [64, 32, 3, 3]
000000 d8 e2 32 bc 48 c5 c9 3c 86 9e 6d 3d 3d 53 26 3d
       -0.010918342 0.024630204 0.058012508 0.040606726
000010 2b bb 52 bd 05 86 b5 bc 7f a3 17 3c b0 5f 2c bc
       -0.05144803 -0.022158632 0.009255289 -0.010520861
000020 79 11 90 bc 8c 16 67 bd 4a 22 b2 3b ad a8 12 3c
       -0.017586457 -0.056417987 0.0054362165 0.008951348
000030 43 13 13 3d c6 34 07 3d df 92 39 3d bf 6d ff 3c
       0.03590704 0.033009313 0.045306083 0.03118026
000040 59 3d 68 bd c1 03 09 39 6f d3 47 bd 6c 04 8f bd
       -0.05669913 0.00013066737 -0.048785623 -0.06983265
000050 66 66 97 bc b6 77 26 3d 36 e9 6f bc ed 4d 17 bd
       -0.018481445 0.04064151 -0.014643004 -0.03693955
000060 7f ed 1f bd 7d 92 0a 3d c9 48 e8 3b 72 a0 c7 3c
       -0.039044853 0.03383111 0.007088755 0.024368498
000070 24 86 81 bd 1c 13 9e bd fb 8a dd ba 7b a9 de 3b
       -0.063244134 -0.077184886 -0.0016902381 0.006795106
000080 5b ff 4a bd 8c 79 87 3d 06 9a 9e 3d 91 3b 35 3c
       -0.049559932 0.0661498 0.077442214 0.011061565
000090 3c 80 4d bd 38 2d f7 3c b2 05 ab bc cf 29 3b bd
       -0.050171122 0.03017293 -0.02087674 -0.04569417
0000a0 d7 1d 7d bd 07 bc 21 3c ad fe bb 3c ef 32 85 bd
       -0.061796036 0.009871489 0.022948587 -0.065038554
0000b0 46 23 09 3d c0 34 89 bd 43 86 de bc 90 63 15 3d
       0.033480905 -0.066995144 -0.02716363 0.036471903
0000c0 08 5d b7 3b 13 76 ac 3a 2b 9a 16 bb aa db 4e bb
       0.005595807 0.0013157747 -0.0022980075 -0.0031564035
0000d0 f9 75 8a bd b7 cc 04 3d 9e 9c 74 bd 25 c0 3f 3d
       -0.06760783 0.032421794 -0.059719674 0.046814103
0000e0 70 83 f2 3c 8b 0e 25 3d cf 5e 59 3c 6b c7 36 bd
       0.02960369 0.040297072 0.013267233 -0.044623774
0000f0 ac 82 d7 3c 1a ef 89 bc 36 e0 6d 3d 0c e3 22 3d
       0.026307426 -0.016837645 0.058075152 0.03976731
000100 d1 c6 41 3c 3a 57 1c 3d ab 5d 8d bd b4 10 90 bd
       0.011827187 0.038169123 -0.06902631 -0.07034436
000110 dd 4e 92 bc de 80 4b bd 59 15 1b 3c fb 4a 12 bd
       -0.01785987 -0.049683444 0.009465539 -0.03571604
000120 ed 58 01 3d 2a bb 52 3c 5d e8 75 bd 25 0f dc bc
       0.031578947 0.012862006 -0.060036052 -0.02686269
000130 ae e1 a4 3c 3b 2e 57 3b 74 06 70 bd 67 99 03 3d
       0.020127144 0.0032833952 -0.058599904 0.032128718
000140 f5 1c 43 bd bd 8a 83 3b 26 ec b0 3c 65 11 cf bc
       -0.047635037 0.0040143416 0.02159698 -0.025276849
000150 e8 36 31 bd cc f7 43 3d 56 85 47 3d 16 98 8b bb
       -0.043265253 0.04784374 0.048711143 -0.0042600734
000160 29 29 00 3d 43 f8 1f 39 66 e9 81 3c 57 fe 4d 3d
       0.031289253 0.00015255906 0.015858363 0.050291386
000170 f8 32 63 3d 73 ac 1b 3d 23 2d 74 3c a0 b2 bf 3c
       0.05546853 0.038006257 0.01490334 0.023400605
000180 96 77 84 bc 3f a5 81 bd b0 3a 8b 3b 3b 28 22 3c
       -0.016170304 -0.06330346 0.0042489395 0.009897287
000190 9d da 96 bd 40 f2 88 bd 82 31 bb bc d3 7d 2d bd
       -0.07365916 -0.066868305 -0.022850756 -0.042356323
0001a0 6e 50 96 3c a2 d5 93 bd 65 02 be bc ab 2f d8 bc
       0.018348899 -0.072184816 -0.023194501 -0.026389917
0001b0 7f 85 7a bd 38 ad 84 bd a4 61 58 3d 41 b0 2c bd
       -0.061162468 -0.06478351 0.052827492 -0.042160276
0001c0 55 18 2f bd d1 19 12 bd 63 07 37 bd 4f cd f6 3c
       -0.042747814 -0.03566915 -0.04468478 0.030127196
0001d0 2e 49 fe ba 13 36 87 3a 64 df 32 bd e2 98 40 bd
       -0.0019400471 0.0010315798 -0.043670073 -0.0470208
0001e0 4e d9 60 3d 48 cc a1 3c a2 6f 38 bd bf e6 22 3c
       0.054894738 0.01975073 -0.045028336 0.0099427095
0001f0 7f bd 51 bd 93 7f 24 3d a3 24 0d 3c c7 f4 a1 bc
       -0.05120611 0.040160727 0.008614692 -0.01977004
000200 cc df 4e bc d9 bb 25 bd 62 f5 e8 3c 80 a8 a5 ba
       -0.0126265995 -0.04046235 0.02843732 -0.0012638718
000210 0d d5 04 3c 72 4e 69 bc 1f 34 09 3d c1 71 2b bd
       0.008107436 -0.014239894 0.033496972 -0.04185653
000220 35 52 01 bc 6e 3c 3e bc eb f3 32 bd 52 1b 13 bd
       -0.007893135 -0.011611087 -0.04368965 -0.035914727
000230 81 8f 36 3c 88 85 28 3c d4 0e dd 3b c0 28 2a 3d
       0.011142612 0.010285743 0.0067461524 0.04154277
000240 23 a3 87 bd d7 b0 11 3d 24 b8 f7 bc ee 60 44 3c
       -0.06622913 0.03556904 -0.030239172 0.011986
000250 df 57 d9 3c 39 e5 8c bc 6a 51 16 bd e6 5f 1a bd
       0.026531158 -0.017199146 -0.036698736 -0.037689112
000260 37 66 c1 bc 1a 32 12 3d 7c a9 2f bd 00 78 d9 3b
       -0.02360831 0.03569231 -0.042886242 0.0066366196
000270 5c 6b 67 bc 8e 52 a2 3c f2 91 40 3c 7c 99 c7 bc
       -0.014124718 0.019814756 0.011753546 -0.02436518
000280 98 21 16 3c ed a2 e4 bc 5b 3b 7c bd cf de b2 bc
       0.009163283 -0.02790972 -0.061580043 -0.021834759
000290 f4 35 bf 3c ca ee cc 3c f3 0d 84 bc f8 73 4a 3d
       0.023341157 0.025016207 -0.016119933 0.049427003
0002a0 2b cf 8a bc 52 0e fa 3a df 91 a8 3c e0 09 b7 3c
       -0.016944489 0.0019077754 0.02057737 0.022343576
0002b0 bc b9 83 bd f0 d2 21 bc c9 86 2d 3d 56 04 c8 3c
       -0.064319104 -0.009876952 0.04236487 0.02441613
0002c0 8e 01 e5 bc 86 11 63 bb 96 b4 11 3d 84 bc d8 bc
       -0.027954843 -0.0034647896 0.03557261 -0.026457079
0002d0 b1 17 cd bc 64 07 a0 3c 28 99 99 3b d4 26 0d 3d
       -0.025035711 0.019534774 0.004687447 0.034460858
0002e0 b8 30 7a 3c ed 12 65 bd 55 c9 05 bd 8d 50 18 bd
       0.0152704045 -0.055926252 -0.03266271 -0.037186194
0002f0 e8 fc 7c bd bd 3c 97 3c e1 4c 65 bd 09 52 d0 bc
       -0.061764628 0.01846158 -0.05598152 -0.025429742
000300 41 ad d8 bb b5 98 42 bc 2e 74 a2 bc e9 9f 40 3a
       -0.0066124504 -0.0118772285 -0.01983079 0.0007348047
000310 db 0a 86 3c f0 87 f9 3c 12 b7 53 bd e8 e7 85 bd
       0.016362598 0.030460328 -0.05168826 -0.06538373
000320 03 ab b2 bd 84 e6 b1 bd a0 9a ae bd be 63 84 bd
       -0.08724024 -0.086865455 -0.08525586 -0.06464337
000330 10 8c 28 3d 5c ce ea 3c 98 cc 48 3d 40 45 b8 bc
       0.0411492 0.028662853 0.04902324 -0.022493958
000340 ca d2 3e bd 1a c9 2a 3d 20 16 00 3d 36 69 03 bd
       -0.046587743 0.04169569 0.0312711 -0.03208276
000350 f4 5c 78 bc 9c bc b0 bd 88 96 ac bd fa a5 a1 bc
       -0.0151588805 -0.086297244 -0.08427149 -0.019732464
000360 b2 2e 47 3d 86 61 d5 bc 14 aa df bc fd ce 8b bc
       0.048628516 -0.02604748 -0.02730278 -0.017066473
000370 9d 0e 6c bc a5 4d 96 bc b6 d6 0d bd 69 b2 ab bb
       -0.014407781 -0.01834757 -0.034628592 -0.005239774
000380 0c f1 c7 bc 73 34 69 3c 18 ab 2e 3c 16 cf 3d 3d
       -0.024406932 0.014233696 0.010660909 0.04634007
000390 1c 4d 4c bd 0c 04 0f bd 39 4a 64 3c a4 00 fa bc
       -0.049878225 -0.03491597 0.013933712 -0.030517884
0003a0 89 05 0d bc 31 c3 f5 bc a7 79 9e bb 3e b8 6d bc
       -0.008607277 -0.030000301 -0.0048362794 -0.014509259
0003b0 0c 4b 63 bd 11 ab f0 3c f7 a6 30 3d 85 7b 25 3d
       -0.055491492 0.029378446 0.04312798 0.040401
0003c0 d7 a4 dd 3a 56 74 16 bd c5 5a 65 bc 4d 94 3e bd
       0.0016910088 -0.03673204 -0.013998692 -0.04652815
0003d0 a1 cd 0f bd 97 83 3a bd df 66 1e bd f9 0e a3 bc
       -0.035108212 -0.04553565 -0.038672324 -0.0199046
0003e0 36 46 1e 3d 8f b7 e5 bb b7 e6 01 3d 00 3d 4e bd
       0.038641177 -0.0070104073 0.031714167 -0.050351143
0003f0 94 82 77 bd c3 49 33 3d 64 c4 51 bc 49 e8 79 bc
       -0.060427263 0.043771517 -0.012803171 -0.015253135

conv3.0.bias f4 [64]
000000 a2 87 1c bd 9f 28 82 3c 84 ea 9c bc 34 f1 92 3c
       -0.038215287 0.01588851 -0.019154795 0.01793728
000010 7f 48 d2 3c 85 06 a0 bb be 6a 43 3d 71 71 5a 3c
       0.025669334 -0.0048835897 0.04770922 0.013332711
000020 0f f3 b8 bc 1c e4 d8 3d fb 78 9b bc 36 d6 38 3c
       -0.022576837 0.105903834 -0.018978586 0.011281541
000030 0a 06 8c 3b 89 ff 82 3d e6 e0 03 bd 6f 58 82 3d
       0.004273181 0.06396396 -0.0321969 0.063645236
000040 e6 6e 1f 3d dc 9e 27 3d 7c ad bf 3b b6 4b 82 3d
       0.03892412 0.040922984 0.0058495384 0.06362097
000050 ec 35 0c bc f1 56 21 bd 7b 44 97 bc f4 e8 1a bc
       -0.008557778 -0.039389554 -0.018465271 -0.009454954
000060 dd 65 c0 bc fa 96 7a 3d f3 04 e0 3c f8 4b d4 3b
       -0.023486072 0.06117914 0.02734611 0.0064787827
000070 d2 8b 5a 3c 16 af c3 3c 9f bc 1b bc e9 f8 89 bc
       0.013339 0.023887198 -0.00950542 -0.016842322
000080 a7 7b 3b bd ca 5a c6 3c 63 e9 b5 bc 54 b9 3b 3d
       -0.04577222 0.024213213 -0.022206014 0.04583104
000090 21 19 e2 bc 54 b4 0f 3d 3a b4 b0 3c cc 0e 03 bd
       -0.027599873 0.035084084 0.021570314 -0.031996533
0000a0 da aa 9c 3d a0 cd 9a 3d 79 76 02 3e 49 ab 49 bc
       0.07649775 0.07558751 0.12740506 -0.012308904
0000b0 73 54 03 3d f6 57 f4 3c 5f 2f 24 bd 65 2a 42 bd
       0.03206296 0.0298271 -0.04008424 -0.04740371
0000c0 eb 5b ac bc 31 fa 82 3b cb 20 02 bd 71 aa 5b 3d
       -0.021039924 0.0039971103 -0.031769555 0.053629342
0000d0 1d 14 4f 3d f2 5c 44 3d 95 da 4c 3c ee c0 cf 3c
       0.05055629 0.047940202 0.012503286 0.02536055
0000e0 a5 e5 9c bc b8 fd 1d bb 60 31 be bc 3f 6b 52 3d
       -0.019152472 -0.0024107527 -0.023216903 0.05137181
0000f0 6c 13 6f 3c c2 d0 35 bc 3e 47 c3 3c 80 57 cd bc
       0.014592033 -0.011097135 0.023837682 -0.025066137

conv4.0.weight f4 [128, 64, 3, 3]
000000 22 3c 57 3a d9 9b 32 bd 2b 67 bd bb e0 1e 0f bd
       0.00082105596 -0.04360566 -0.005780121 -0.034941554
000010 66 cc 2f bd 46 46 57 3c 44 c4 50 bd b3 07 25 bc
       -0.04291954 0.013139313 -0.050968423 -0.010072636
000020 1b 7b 1b bd 35 88 d7 bc 68 e9 98 3c b2 76 93 ba
       -0.0379592 -0.026310066 0.018665984 -0.0011250584
000030 cb a9 f8 bc 3c 92 07 bd 1b 60 36 3d c1 fe ff bc
       -0.030354401 -0.033098444 0.044525247 -0.031249406
000040 a7 c7 a7 3c e3 b7 07 bd bf c4 b1 bb fe e0 22 bd
       0.020480944 -0.033134352 -0.0054250653 -0.03976535
000050 82 3e 91 bd ed 26 6a bc 5b 52 5d bd 68 6a 0e bc
       -0.070920005 -0.014291507 -0.05403362 -0.008692361
000060 d1 17 9d bc cf 6d 3b bd 5f cc 7c bc f6 8f 16 bb
       -0.019176396 -0.04575902 -0.015429585 -0.002297399
000070 a9 8a f5 38 47 db 5e 3b 4a 09 74 bd f5 0c 94 bd
       0.00011708338 0.0034005211 -0.05957917 -0.07229034
000080 77 50 cb bb 61 22 ed bc 06 3f 6d bd fa a1 54 3c
       -0.0062046605 -0.028947057 -0.057921432 0.012978071
000090 71 e0 58 bc 3b a8 56 3c d6 e1 bc bc 7b b3 2a bb
       -0.013237105 0.013101633 -0.023056906 -0.002604692
0000a0 80 d5 2b bd b5 89 35 bb 9a e6 f6 3b 1e 58 49 bd
       -0.041951656 -0.0027700488 0.007534814 -0.0491563
0000b0 57 fe 2d 3a 9a 8e 14 bb a3 8f e3 bc be 07 29 bd
       0.0006637326 -0.0022668005 -0.027778452 -0.04126715
0000c0 bd 47 96 bb b6 13 4d bd c7 5c 47 bd 63 d6 63 bd
       -0.0045861886 -0.050067626 -0.048672464 -0.055624377
0000d0 d8 cb 85 3c 47 2d fe 3c 4e 17 b4 bc d0 77 f2 bc
       0.016332552 0.03102745 -0.021983769 -0.029598147
0000e0 45 31 f1 bc d9 16 bf bb 11 5b 05 bd 8a 2c d3 bc
       -0.029442439 -0.005831581 -0.03255755 -0.025778074
0000f0 9e 2d 6a bd 17 7b ec bc c4 27 5e 3a 53 96 94 3c
       -0.05717241 -0.028867288 0.00084745535 0.018138086
000100 65 a2 19 3c fb 61 67 bd 5e 49 08 bd 35 14 41 bd
       0.009377097 -0.056489926 -0.033273093 -0.04713841
000110 98 9d a3 bc 0d 54 7d bb 45 67 fe bc 47 98 20 3d
       -0.019972607 -0.0038654834 -0.031055102 0.039207723
000120 92 c3 ac bc 54 6c e0 bc b1 91 f6 bc 4b 82 77 bd
       -0.021089349 -0.027395405 -0.030098768 -0.06042699
000130 88 1b 2d bd 36 74 0b bd 01 64 9b bc e2 d9 2b bc
       -0.042262584 -0.034046374 -0.018968584 -0.010488959
000140 e2 d3 9d bc 6d 5b ec 3c a8 ec ec bc 6d f9 13 bd
       -0.019266073 0.028852189 -0.02892144 -0.036126543
000150 5f 39 24 bd 40 fb 6c bd fe 10 f2 ba 39 c3 e2 3c
       -0.040093776 -0.0578568 -0.0018468199 0.02768098
000160 ae 72 c0 bb b0 d1 4a bd 7a a9 29 bd 0e 71 9a bc
       -0.005873046 -0.04951638 -0.04142139 -0.018852737
000170 98 04 6e bd 92 3d 83 bd 2a 21 54 bd ab 90 72 bd
       -0.05810985 -0.06408228 -0.05178944 -0.059219997
000180 86 90 c0 3c 4e 14 60 3c 09 82 0c bc 3b 80 06 bd
       0.023506414 0.013676716 -0.008575925 -0.032837134
000190 3a be b7 3c fd e8 06 bd e5 8a cb 3c eb fa 08 bd
       0.022429574 -0.03293704 0.024846504 -0.03344242
0001a0 16 ef 42 bc e4 65 33 bd 44 c2 75 bc 2d 9d a9 bc
       -0.011897823 -0.043798342 -0.01499993 -0.02070483
0001b0 24 bc e8 ba 36 82 b6 3c b2 16 91 bb 9b 1a 58 3c
       -0.0017756266 0.022278886 -0.0044277543 0.013189937
0001c0 67 52 a1 3b 94 35 02 bd 97 83 58 3c 52 d1 35 bd
       0.004923153 -0.031789377 0.013214967 -0.044389077
0001d0 25 6b 1c 3b 8f 11 8b bc 66 d1 36 bd f3 b8 e7 3b
       0.0023867574 -0.016976146 -0.04463329 0.007071608
0001e0 08 27 63 bc d0 25 84 bc 87 d4 6a bc bd 22 a1 bc
       -0.013864286 -0.016131312 -0.014332897 -0.019669885
0001f0 ae a3 ff bb 2c 75 87 3d aa de 1a bd 68 94 45 bd
       -0.0078014946 0.06614146 -0.037810005 -0.048237234
000200 3a 11 a4 ba b2 16 c9 3b 7b d3 6d bd 05 7c e0 3c
       -0.0012517341 0.0061367387 -0.05806301 0.027402887
000210 4b 84 ad bc 56 50 7c bd 13 46 5f 3c f0 03 df 3c
       -0.021181246 -0.06160005 0.013627547 0.027223557
000220 62 da c4 bc ab aa 9e bc 29 05 36 3c 75 d4 11 bd
       -0.024029914 -0.01936849 0.011109629 -0.035603005
000230 ed 16 0d bc 58 31 95 bc 4d ee 0c bd 02 6c 01 3c
       -0.008611423 -0.018212005 -0.03440695 0.007899286
000240 7a 61 8e bb 77 74 64 bd c3 5f 0d bd d1 d8 81 bc
       -0.004345116 -0.055775132 -0.034515154 -0.015850456
000250 8d 43 4d bc af b5 89 bb 8a 01 41 bd 58 a4 90 bc
       -0.012528312 -0.0042025666 -0.04712061 -0.01765649
000260 e2 3f 5a bc bb ef 3f bc 7a 25 4a bd 2d cc 12 3d
       -0.013320895 -0.011714871 -0.049352147 0.03583925
000270 ac 78 3e bd 6b 20 d3 bc 4b f7 ea 3c 55 c6 3f bb
       -0.0465018 -0.025772294 0.028682372 -0.0029262502
000280 fc 03 4d bd 64 68 35 bd b9 a5 a2 3c a1 7d 83 bd
       -0.050052628 -0.044289008 0.019854413 -0.06420446
000290 a2 50 0f 39 0f c2 a0 bc 44 1d 41 bc 20 be 39 bd
       0.00013667581 -0.019623784 -0.011786763 -0.045347333
0002a0 2c 72 d6 bb 7b 8b c7 3c 53 a5 8f ba 09 5c b4 bc
       -0.006544372 0.024358502 -0.0010959305 -0.022016542
0002b0 19 04 5f bd e8 97 ff 3c b0 07 03 bd 18 7c 08 bd
       -0.054447267 0.031200364 -0.031989753 -0.03332147
0002c0 28 0d 89 3c b8 40 e2 bc 89 0d ee bb 4d cf 1e bd
       0.016729906 -0.02761875 -0.007264797 -0.038771916
0002d0 ef 72 29 bd 7d 39 1e 3d d1 82 53 bd 33 3a 01 3d
       -0.041369375 0.038629044 -0.051638428 0.031549644
0002e0 11 73 14 3c 2a 7a c8 3c b5 ac 0c bd ff 11 f5 3a
       0.009060637 0.024472315 -0.034344394 0.001869738
0002f0 5d 78 a7 bc f1 fe 0e 3d be 94 47 3c 95 a1 07 bc
       -0.020443136 0.0349111 0.012181459 -0.00827827
000300 5d ed cd bc d6 1b 36 bc d3 c0 83 3c f6 2e ba 3c
       -0.025137598 -0.011115035 0.016083157 0.02272747
000310 76 02 a3 bb 06 1f 56 bd d6 a9 de 3b 69 ba ef bc
       -0.0049746586 -0.05227568 0.0067951484 -0.029263692
000320 a1 95 ee bc 3a 19 c7 bb aa 64 c7 3c dc e3 14 bd
       -0.029124083 -0.0060760053 0.024339993 -0.036350116
000330 bf 97 90 3b db e1 03 bd 5d 8b 3f bc 1c 42 b5 3b
       0.004412621 -0.032197814 -0.011690942 0.0055315625
000340 6c 25 15 bd 49 0b c1 ba 07 24 15 bd 08 79 05 3c
       -0.03641264 -0.0014728095 -0.03641131 0.008146532
000350 11 6d 3c 3d 38 10 9f 3b 4f e1 be bc 9a b7 2e bd
       0.04600245 0.0048542283 -0.023300795 -0.042655565
000360 c9 5d d2 3c 4a de 2b 3c 2b 84 bf bb 7b e5 35 bd
       0.025679486 0.01049001 -0.005844613 -0.044408303
000370 57 91 34 bd a0 2f fc bc a2 c1 d8 bc cd 51 a5 3c
       -0.04408392 -0.030784428 -0.026459519 0.020180607
000380 d7 e6 ad bc ed 7e 64 3c db 29 05 bd 43 24 2e bd
       -0.021228237 0.013946277 -0.03251062 -0.04251505
000390 ed ae 8d 3c 4a d5 a8 bb 62 c1 c5 3a 55 d5 8f bc
       0.017295325 -0.005152379 0.001508754 -0.01755778
0003a0 66 c7 4d 3c 33 70 87 bc 9a 36 77 3c 38 67 56 bc
       0.012559747 -0.016532993 0.015088702 -0.013086133
0003b0 8d bc 0e 3d 57 93 38 bb 97 3f ed bc ad 8a a5 3c
       0.034847785 -0.0028163993 -0.028960986 0.020207727
0003c0 56 66 82 bc 57 c4 8c bc d3 68 44 bd 2c d6 36 bd
       -0.015917938 -0.017183466 -0.04795153 -0.044637844
0003d0 ac ec 42 bd ef af 1e 3b ec d8 ec bc 97 78 12 bd
       -0.04758899 0.0024213751 -0.02891203 -0.035759535
0003e0 a9 ac 0c bc 0f fe 08 3d c9 70 83 3c 0c 9a f7 ba
       -0.008586087 0.033445414 0.016044991 -0.0018890514
0003f0 57 4c 63 bc 9e 8d a7 bb 89 18 17 bc bc 21 35 bd
       -0.013873181 -0.0051133176 -0.009222158 -0.044221625

conv4.0.bias f4 [128]
000000 b4 f9 d1 bc b1 ef 12 3d 6b 50 f3 bb 0a 7e dc 3c
       -0.025631763 0.03587312 -0.007425358 0.026915569
000010 df 34 02 bd f7 3e 01 bc d0 87 0c 3c cd 72 f8 bc
       -0.031788703 -0.007888547 0.008577302 -0.030328179
000020 23 60 10 3d ce 20 02 bd c2 6d 5a bc 2a 11 24 bc
       0.035247933 -0.031769566 -0.013331832 -0.010013858
000030 4d 23 f2 bc ac 1d cd bc 38 26 c3 bc a5 46 ac 3c
       -0.029557848 -0.025038563 -0.023821935 0.02102978
000040 e9 e3 e3 3c bc 1a c4 3b f2 e3 e2 ba 51 06 04 3d
       0.027818637 0.0059846323 -0.0017310365 0.032232586
000050 89 1f 2c bc 2a b3 71 bd fc c3 51 3d ca 41 e1 bc
       -0.010505565 -0.059008755 0.051212296 -0.027497191
000060 97 bc e3 bc c6 85 8b 3b 8f dd a2 bc 87 15 f7 bc
       -0.027799888 0.0042578904 -0.019881038 -0.030161632
000070 92 bf be 3c 93 8f 5a 3d 4a 85 68 bd fa e4 d1 3b
       0.023284707 0.05335958 -0.05676774 0.00640547
000080 bb 85 f6 bc 98 ab a8 3c 10 7f 5a 3b fb 23 0f bd
       -0.030093065 0.020589635 0.0033339895 -0.034946423
000090 66 05 81 bd 29 b0 8a bb 70 95 c8 3c 7a 76 f5 3c
       -0.06299858 -0.0042324257 0.02448532 0.02996372
0000a0 ae 2f 24 bd 35 e7 02 3c f5 13 cf bc 1c 90 3f bd
       -0.040084533 0.007989694 -0.025278071 -0.046768293
0000b0 a8 55 df bc 25 fc 2a 3c 1c ae 27 bc 10 ec 9a bd
       -0.027262524 0.0104360925 -0.010234382 -0.075645566
0000c0 aa 92 2c bd b9 c4 b7 3c 7e 52 0b 3d 7e 54 75 3c
       -0.042132057 0.022432672 0.034014218 0.014973758
0000d0 0d 50 f6 bc 32 6c 0a 3d 75 b5 c7 bc f0 88 e4 3b
       -0.030067468 0.03379459 -0.024378518 0.006974332
0000e0 ec 62 fc bb 41 0c c6 bb 01 9b a2 3c 7e c0 34 bb
       -0.007702222 -0.0060439412 0.019849302 -0.0027580555
0000f0 a8 31 b5 3c be 30 4a 3d 65 40 51 bd 09 29 4e bc
       0.022118405 0.04936289 -0.051086802 -0.012583026
000100 37 44 7d 3c b0 c9 7b bb 13 c3 87 3d eb 2d 0b bd
       0.015458158 -0.0038419776 0.06629004 -0.033979338
000110 9b 17 c2 3c 53 9b 51 3c 2f 48 31 3d 83 cc 3e 3c
       0.023692897 0.01279338 0.04328173 0.011645439
000120 f1 5f dd bc a9 20 38 bd 28 4a d8 3c 02 7f 75 3c
       -0.027023287 -0.044953022 0.026402548 0.014983894
000130 de 0e 80 3c 5a b9 81 bc a6 cf 46 bb cd 27 e3 3c
       0.01563209 -0.015835453 -0.003033617 0.02772894
000140 a8 b8 9f b8 06 78 a9 3c 87 54 9a 3c e4 8f c1 3c
       -7.616106e-05 0.020687114 0.018839134 0.023628183
000150 d5 6c 82 3c 54 69 4e 3b 2b c4 2e 3b 4c 5e 41 3d
       0.015921036 0.0031495886 0.0026667218 0.04720907
000160 01 a7 c8 3c 87 60 28 3c e8 fc a0 3c a5 4a 59 3d
       0.024493696 0.01027692 0.019651845 0.053049702
000170 fb 2c 5d bc fd 84 d8 3c 1c ae 0e 3d 0e 60 89 bc
       -0.013499494 0.026430601 0.034834012 -0.016769435
000180 4f 9c b6 3c 67 db 7a bd 8f f4 e9 ba 64 45 5a bd
       0.02229133 -0.061244395 -0.0017849373 -0.053288832
000190 63 c5 96 bc ee a4 dd 3c 07 8b 09 3d 98 69 46 3c
       -0.018404668 0.027056184 0.033579852 0.012110136
0001a0 86 7c 51 3c c5 82 2e 3c 15 bd c9 3c 42 1f b7 bb
       0.012786036 0.010651295 0.024626294 -0.005588443
0001b0 87 56 e5 3c 42 f3 95 3c 15 0e 5f 3c 4f b6 87 bc
       0.027995361 0.01830447 0.013614197 -0.016566424
0001c0 f3 62 fe 3c f0 50 d2 bc 5a d4 6f bb 32 f2 b3 bc
       0.031053042 -0.02567336 -0.0036595077 -0.021966074
0001d0 47 2a dd 3c f1 6e 09 3d 90 3c 10 bc d3 5b 6e bc
       0.026997698 0.033553068 -0.008803502 -0.01454826
0001e0 a3 1f bb 3c 8f c7 07 3d ea bc 46 bd d0 2e 12 3d
       0.022842234 0.0331493 -0.048520006 0.035689175
0001f0 31 d4 71 bb f0 4e d0 3b f4 7d 07 bd eb 8d 98 3c
       -0.0036900158 0.0063570663 -0.033079103 0.01862236

linear.weight f4 [2, 2560]
000000 37 a5 e0 bc 35 57 84 bc d9 95 0b ba 41 62 90 3b
       -0.02742253 -0.016154865 -0.0005324758 0.004406244
000010 90 b3 5b 3c c4 75 29 3c 95 22 30 bb a2 9c 09 bc
       0.01340951 0.010343019 -0.0026876081 -0.008399161
000020 9e ed b9 bb 0b 3e 6f bc 6e 74 9f 3c ee 65 91 bb
       -0.005674078 -0.014602195 0.019464698 -0.0044372
000030 94 85 d8 3c d1 77 18 bc 12 c2 8b 3b 42 13 cc 3b
       0.026430883 -0.00930591 0.0042650783 0.0062278816
000040 9b ec b9 3b 74 f5 94 bb a0 28 a0 3c 09 37 63 3c
       0.0056739575 -0.004545862 0.019550622 0.013868102
000050 bc 04 c0 3c 87 25 b4 bc 84 54 10 bd fc 38 78 3b
       0.023439758 -0.02199055 -0.03523685 0.0037875762
000060 02 3a b8 ba 82 63 04 3d 8f 6c 18 3d c9 4c bc 3c
       -0.0014055374 0.03232146 0.037212905 0.022985833
000070 2c f1 fa b9 89 3e f1 bc fe 72 4c bc d3 e8 d5 bc
       -0.00047863403 -0.029448764 -0.012478588 -0.026111996
000080 78 f8 f9 3b 60 7b 3e bc 5c 58 92 bb db af 81 bc
       0.0076284967 -0.011626095 -0.0044660997 -0.015830925
000090 50 bf 3d bc b0 cb 06 bd 89 10 46 bc 58 e0 9a bc
       -0.011581257 -0.032909095 -0.012088903 -0.018905804
0000a0 5e 45 9e 3c 0a 9a 92 bc 4c be f0 3a 80 31 00 3c
       0.019320186 -0.017895717 0.001836726 0.007824302
0000b0 5f 53 0e bd 94 39 85 3c df 1d 5c bc 20 99 dd 3c
       -0.034747478 0.016262807 -0.013434856 0.027050555
0000c0 72 13 04 3d 1f 85 20 bc e8 c3 7c bc 53 0b 46 3c
       0.032245107 -0.009797364 -0.015427567 0.012087661
0000d0 63 1b a5 3c 37 58 a2 bc 6c 5c 76 bc 33 33 35 3c
       0.02015466 -0.019817455 -0.0150366835 0.01105957
0000e0 38 ee 60 3c c4 c8 ba bb 48 e5 a1 bc a7 78 01 bb
       0.013728671 -0.0057002027 -0.01976265 -0.0019755752
0000f0 1e 16 c8 bc 57 d0 06 bd 99 aa 66 bd 05 fd 94 bc
       -0.024424609 -0.032913532 -0.05631504 -0.018187055
000100 d3 3c af ba 42 ef 86 3c b6 e6 17 3c fe 3a 3c 3d
       -0.0013369567 0.016471509 0.009271314 0.045954697
000110 44 f3 36 3b 27 15 94 bb e1 71 9a bb 1f 24 f5 3c
       0.0027915994 -0.004519123 -0.0047132825 0.02992445
000120 88 17 2a bb a3 21 9a bc 7a 40 7e 3b 04 ff 2b bc
       -0.0025953967 -0.018814867 0.0038795755 -0.010497812
000130 ba 54 2d bc 55 93 e5 3b b5 d7 3a 3c e3 1e 2c 3c
       -0.010579282 0.0070060887 0.011403968 0.010505411
000140 13 ba 4a 3b 2d 69 6c 3c 1e 54 25 bc 32 84 45 bc
       0.0030933663 0.014429373 -0.010090856 -0.012055444
000150 8d c1 a3 bb 2d 98 3c bc 39 2c 2c bc f3 d6 8e 3c
       -0.0049974383 -0.011510891 -0.01050859 0.01743648
000160 ee fa 45 3a 6a 41 9f 3c 3a 11 23 3d c7 ff 66 bc
       0.0007552345 0.019440372 0.03981135 -0.014099068
000170 1e 39 34 bc 0c f5 90 3c c3 c0 1b ba c7 c8 9b bb
       -0.010999946 0.017694972 -0.00059415045 -0.004754159
000180 0c b5 02 3c 86 2a 06 bd a7 e5 be bc ce a2 3c 3b
       0.007977735 -0.032755397 -0.023302866 0.0028783563
000190 06 2e ec 3b 9f 9c aa b9 b3 f1 2f 3c 22 d1 97 3c
       0.007207635 -0.0003254162 0.010738778 0.01853234
0001a0 5d a0 33 3c 3f 01 0c bd c8 1c 67 bd 4b 89 8a bc
       0.010963527 -0.034180876 -0.056423932 -0.01691117
0001b0 53 fc 07 bc 02 bc 4f 3d f4 0f a4 3c 3a 7d d9 3c
       -0.008299905 0.050716408 0.020027138 0.02654897
0001c0 cd d1 ec bb b7 68 dc bc e8 31 39 bc 21 83 d4 bc
       -0.0072271586 -0.0269054 -0.0113034025 -0.025941433
0001d0 00 8e 94 3c a0 7f 9e 3c 10 4b 00 bc c7 22 9b bb
       0.018134117 0.019347966 -0.007830396 -0.0047343704
0001e0 3c 83 d8 3b a7 ed c8 bc 8a e8 be 3b 84 98 36 bb
       0.006607441 -0.024527384 0.0058260607 -0.0027861902
0001f0 cf 8d 1b bc 48 58 f5 bb ec b1 5d 3c c8 fd d8 bb
       -0.009494259 -0.0074873306 0.013531189 -0.00662205
000200 5c a4 00 bd 74 df 41 bd d3 3e 79 3b 7a 6b a1 3c
       -0.031406745 -0.047332242 0.003803183 0.01970457
000210 f6 69 a6 3c 4e de 53 3c 61 39 4d 3c ed 23 a9 bc
       0.020314198 0.01293142 0.012525887 -0.020647014
000220 96 32 47 3c 8a 69 e4 3b ca e0 7e 3c 2f 69 a8 ba
       0.012158057 0.006970589 0.015556524 -0.001284873
000230 3f 95 f2 3a de 92 bd 3c ef 90 cd bc 63 c2 28 3b
       0.0018507614 0.02314132 -0.025093524 0.002575063
000240 c9 42 02 bd f8 47 33 3c ad b4 b5 3c 55 37 03 3d
       -0.031801973 0.010942452 0.02218088 0.03203519
000250 1f ea 27 bb 46 a0 f2 3c 62 2c 05 3d 8c 9b 1a 3c
       -0.0025621725 0.02961744 0.03251303 0.009436499
000260 dc 47 8f bc 70 4e 6f 3b 17 39 8e 39 55 a1 10 bb
       -0.01749032 0.0036515258 0.00027126886 -0.0022068818
000270 38 27 4c bc 45 dd fc ba ba 0d a2 bc 3f 7e 99 ba
       -0.012460522 -0.0019292018 -0.019781936 -0.0011710598
000280 53 f1 8c bc e2 59 83 bc 4e 49 55 bd a7 91 4b bd
       -0.017204916 -0.01603407 -0.052071862 -0.04969945
000290 d9 a5 4c 3c b1 a4 10 3d b1 d7 cb 3c 72 b6 16 3d
       0.012490713 0.035313312 0.024883123 0.036795087
0002a0 ad 93 a2 3c d9 e1 aa b8 fd 18 de bb 1a 45 bd 3b
       0.019845808 -8.148299e-05 -0.006777881 0.00577606
0002b0 fd 24 81 3c 45 77 8f bc f4 e9 64 3c f3 46 48 3c
       0.015764708 -0.017512927 0.013971794 0.012223947
0002c0 4b a7 80 bc 69 ed cf bc 8b 17 25 3c d0 cf c7 bc
       -0.015704772 -0.02538176 0.010076414 -0.024391085
0002d0 0a f8 12 bc 78 c3 88 bc fc ed 0f bc 1f bc 3b 3c
       -0.00897027 -0.01669477 -0.008784767 0.011458426
0002e0 63 15 57 3c f5 64 7c bb c9 55 f1 3b 66 ea 2d 3b
       0.013127658 -0.0038512324 0.0073649627 0.0026537417
0002f0 9f 2d d2 ba 16 8b 6e 3c 29 52 d8 bb 19 52 25 bb
       -0.0016035325 0.014559528 -0.006601591 -0.0025225936
000300 0a e5 8b 3c 8b 4b 5f 3a 70 f4 a0 3c 35 5c 6c bb
       0.017076988 0.00085180317 0.019647807 -0.0036065702
000310 39 5a 9d bc b3 e8 25 bc 5a 10 9b bc 66 d3 75 3c
       -0.01920806 -0.010126281 -0.018928695 0.015004015
000320 2e f2 0d 3b 81 c5 8e 3c 3d b4 37 3b b5 bd 53 bb
       0.0021659243 0.017428162 0.0028031014 -0.003230912
000330 d1 6f fe bc c2 1b 75 3c 69 b5 0e bd 5b bf bf bc
       -0.031059178 0.014960231 -0.034840975 -0.023406675
000340 ca 5c f0 3c 73 00 5c 3c c5 ed 45 3d 3f df 2e 3d
       0.02934112 0.0134278415 0.048322458 0.042693373
000350 8d d7 ec 3c 42 b8 d7 3b e4 48 4b 3c 50 2a 4e bc
       0.028911376 0.0065832445 0.012407515 -0.01258333
000360 03 d9 2b 3d 0e c3 73 3c ce b8 91 3b 89 3d b7 3b
       0.041955005 0.014878048 0.0044470793 0.0055920524
000370 88 9a 8d bb 5c dc 8a 3b 87 a6 a2 bc 4b 9b a9 bc
       -0.0043214 0.0042376947 -0.019854797 -0.020703932
000380 6f d3 05 bc e1 3e f1 bc c2 4f e3 bc 45 c1 21 3d
       -0.0081680855 -0.029448928 -0.027747992 0.039490957
000390 a7 a8 10 bd af 66 da 3c 7b 6e 1c 3d d3 82 e8 3c
       -0.03531709 0.026660291 0.0381913 0.028382694
0003a0 f8 a5 52 bc fa f5 a1 ba 55 46 41 3c c7 84 12 3d
       -0.012856953 -0.0012356632 0.011796554 0.035771158
0003b0 e1 4a c5 3c 5b c2 49 3d 65 19 0e 3d ec 05 05 3d
       0.024083557 0.049257617 0.034692187 0.03247635
0003c0 e5 69 2f 3c a1 11 c0 3b 01 bf f5 bb 92 f2 9e bc
       0.0107064 0.0058614765 -0.007499576 -0.019402776
0003d0 03 2b 96 bb a3 66 5b bc 73 a6 99 ba 01 c2 53 3c
       -0.004582764 -0.01339117 -0.0011722579 0.012924672
0003e0 2e 55 10 bc d1 5d f7 3b 6f 95 9e bc d6 0b 8f 3c
       -0.008809371 0.0075490256 -0.019358365 0.017461699
0003f0 aa 48 a0 3c 9c b1 09 bd 3f b1 da bc 0b 50 f8 bc
       0.019565899 -0.033616647 -0.026695846 -0.030311605

linear.bias f4 [2]
000000 eb 95 8a 3c f5 3a ad bb
       0.01691719 -0.0052865692
